model.pt (torch_old, 300230 bytes, 8 tensors)

hidden_layers.0.weight f4 [32, 37]
00000000: 8578 823d e038 243d 436e 59bd 1d8f ed3d
00000010: 9b2f 313d a22f 1f3e 3fa8 103d 5b04 973c
00000020: f4d0 fc3d 85c6 71bd db7f 803e 614a 89be
00000030: fbe7 96be d4c8 a9be 47b7 9abf 925d 243d
00000040: 100a ed3d d447 0b3e e28a ba3d 7a8a 753d
00000050: 4dd3 ab3d f274 503e 824b f93d 8450 f43d
00000060: fc2a b63d 5c13 043d 18a6 603e cc09 92bc
00000070: 8792 4abd 2cdf 4dbd 8cb2 d43a dc10 a33d
00000080: 95b9 2abe 825a 093c 3db5 f8bd 8c4a 8dbd
00000090: 8fe4 b5bc 9c1c 403e ac3e 003e 17e6 043e
000000a0: 06cb 243e 2e23 d8bc ed44 553c bb97 84bc
000000b0: 5d61 06bc d64c 2e3d 2c0e 6d3d f9f3 093e
000000c0: 8df7 4b3d 19f7 d83d 6097 b43d 44f1 1ebe
000000d0: fa67 593d f884 0a3e 29d6 ee3d 20de e83d
000000e0: 72bf 38bd ef6b 1cbd 8071 493d ef55 a4bc
000000f0: 0ec6 f6bc e61a 303c b891 a63e 3b37 5fbe
00000100: 513b 35be 7777 b4be 6281 eabf c87c f83d
00000110: f5f7 593e bd15 0d3e 7526 b13d c17f 9c3c
00000120: 397a d53c f3a1 7b3c 5c9c 013e 6896 043e
00000130: 369a 9dbb 3726 2a3e 30b8 983e fb1f 2b3d
00000140: 5904 75be 0496 0f3e 64d6 9abd 637d 22bf
00000150: c484 963d e8d7 02bd be3a b5bd f1c4 363d
00000160: 83be f53d ba3b 26be 9bb3 103e 8302 a93d
00000170: 4aa6 9cb9 bbae 223e 9294 4bbe 950e babd
00000180: d639 393e 59cc d83c f183 b9bd 2e60 96be
00000190: ab3c 863e 1720 1d3e 2ce9 57be 01d6 393d
000001a0: f629 83be 3139 303d fdc5 893a 328a b1bd
000001b0: 7543 99bd 21e3 cdbc fb47 a1bc 41a0 303e
000001c0: d618 4f3c 8c9c c63d 11f1 fd3c 9675 86be
000001d0: 4012 4fbb 91a1 9e3c 2940 ff3d 9d8a b2bc
000001e0: 9723 a03c 3994 763c efa3 96bd 0a4a 323d
000001f0: 864d 933c fbcf 31be b465 36bd eaba 263d
00000200: 0853 8ebc ac44 febd 20dc 12bd 37ed 6d3d
00000210: 81d2 c23d 0539 37bd 2542 383e 13cb d73d
00000220: 60fb fd3c f249 1fbd 3b81 853d 3007 b13e
00000230: 03ce 163f a4e2 9c3e 123f a03d 70b0 87bd
00000240: 623b 7bbe 8433 eebe 662b 1c3d 60ab ae3c
00000250: 17b5 d23b a3a9 12be a733 0bbe 83c4 19bd
00000260: 8b54 9f3d 54c3 a23e e933 ab3d 67d5 25be
00000270: 1ba2 24be 472d 31bf 0395 ac3d e4c6 b7bd
00000280: b5db 82bd 31c2 71bd e159 1dbe 4cbe eabd
00000290: f59e a03d 06b6 4fbc b27d 943d f526 673e
000002a0: b9fa 91bd f0bc 2c3d 71f7 ce3d 44ad 723d
000002b0: 61be de3e b5c5 8b3d 3db8 77bc 0f88 ac3d
000002c0: 795a 943d 9d04 c43d 9287 723e 1105 91be
000002d0: 475e 65bd 8ea7 553e fb65 bb3e 7b8d bbbc
000002e0: 1658 e43b c0bc ce3d 577e 9ebd 0077 c4bd
000002f0: 176e 9f3d c6b2 dd3d 7b16 803e 53c6 e43d
00000300: c677 57be da3c edbc af4b 87bf 5507 d2bd
00000310: afb1 9f3b 3eee 863d c7ed ac3c bb19 bf3d
00000320: 6728 a63d 96be fa3c cb11 1cbb d262 1cbe
00000330: c027 e0bb c990 123e f30e 9abb f306 093d
00000340: c82b 143e 6c54 69be 5888 10bc f69b 983b
00000350: 28ea 4d3c bba5 f03d fda1 773d c8f9 b03d
00000360: fe96 a3bd d675 67bd 593e a03c 53ca 38be
00000370: 549d 13be c64c 0b3d 3d48 713e 6b24 56bd
00000380: 90aa 27be c071 78be e145 31bf 8f49 8a3d
00000390: a150 acbd 1c14 a7bc ac62 3abd fd53 323e
000003a0: 948f 523c 5ee4 743e f825 333d f4e3 433d
000003b0: fcad b13e b81a 15be 1e7a 7abc 15bd b43d
000003c0: 1358 0a3d 5afb 623e 484f 65bd eae4 a63d
000003d0: e636 583d 3077 02be 7a09 0d3e 6a83 4ebe
000003e0: 0a11 0f3e 7746 b7bd 0e4f 56be 9183 293e
000003f0: c301 98bc b2d7 203e fcf0 9ebc 53db a73d
0.063706435 0.040093303 -0.05308367 0.11599562 0.04325829 0.15545514 0.035316702 0.018434694
0.12344542 -0.059027214 0.25097546 -0.2681456 -0.29473862 -0.33161032 -1.2087182 0.040128298
0.11574185 0.13601619 0.09108521 0.059946515 0.08389912 0.20357111 0.12172605 0.1192942
0.08894917 0.032245025 0.2193836 -0.017826937 -0.049456146 -0.05026166 0.0016227528 0.079622
-0.16672356 0.008383395 -0.121439435 -0.06898984 -0.022203712 0.18760914 0.12523907 0.12978397
0.16093072 -0.026383962 0.0130169215 -0.016185632 -0.008201924 0.042553745 0.057874843 0.13471974
0.04979663 0.10594005 0.08817935 -0.15521723 0.053077675 0.13527286 0.116619416 0.11370492
-0.04510445 -0.03818887 0.049180508 -0.020060508 -0.030123737 0.010748601 0.3253305 -0.21798413
-0.17698409 -0.35247394 -1.8320735 0.12133175 0.21285994 0.13777824 0.08649913 0.019103887
0.026059257 0.015358436 0.12657303 0.12948 -0.004809643 0.1661614 0.29828024 0.041778546
-0.2392744 0.1402207 -0.07560423 -0.63472575 0.07349542 -0.031944185 -0.08849095 0.04462141
0.11999228 -0.16233721 0.14131014 0.08252432 -0.00029878534 0.15886967 -0.19880894 -0.090848126
0.18088469 0.026464628 -0.09058369 -0.29370254 0.2621816 0.15344273 -0.21085042 0.045370106
-0.2561795 0.043023292 0.0010511276 -0.08668937 -0.074835695 -0.025132718 -0.019687643 0.17248632
0.012640199 0.09697828 0.030998738 -0.26261586 -0.0031596571 0.01936415 0.124634095 -0.021794612
0.01954822 0.0150499875 -0.073554866 0.04352764 0.017981302 -0.17364495 -0.044530585 0.0407056
-0.017373577 -0.12415442 -0.03585446 0.058087554 0.09512807 -0.044732112 0.17993982 0.1053678
0.031003654 -0.03888888 0.065187894 0.34575796 0.589081 0.30641663 0.0782453 -0.0662545
-0.24534371 -0.46523678 0.038127325 0.021321952 0.006430279 -0.14322524 -0.13593923 -0.037540924
0.07779797 0.3178965 0.083595105 -0.16194688 -0.16077463 -0.6920971 0.08426859 -0.08973482
-0.06389562 -0.059023086 -0.15366317 -0.114620775 0.07842819 -0.012677675 0.07250537 0.22573455
-0.071279 0.042172372 0.101057895 0.05924727 0.43504623 0.06824819 -0.015119609 0.084243886
0.07243819 0.095711924 0.23684528 -0.28324178 -0.055998113 0.20864698 0.36601242 -0.022894612
0.0069685085 0.10094595 -0.07738941 -0.0959301 0.0778467 0.10825114 0.2501715 0.1117064
-0.21041784 -0.02895968 -1.0569972 -0.10255305 0.0048734765 0.0658841 0.021109475 0.093310796
0.08113175 0.030608457 -0.0023814316 -0.15272072 -0.006840676 0.14313044 -0.004701489 0.033453893
0.14469826 -0.2278611 -0.008821569 0.004657264 0.012568034 0.117503606 0.06045722 0.08641392
-0.07987784 -0.05650886 0.01956098 -0.1804593 -0.14415485 0.034008764 0.23562713 -0.052280825
-0.16373658 -0.24262142 -0.6924725 0.067523114 -0.08413816 -0.020395331 -0.045504257 0.17414851
0.0128516145 0.2391524 0.04373738 0.047824815 0.34703052 -0.14560974 -0.015287904 0.08825127
0.0337754 0.22166196 -0.05598381 0.08149131 0.05278673 -0.12740779 0.13773146 -0.20167318
0.13971344 -0.08948987 -0.20928594 0.16554095 -0.018555528 0.15707281 -0.01940202 0.0819613

hidden_layers.0.bias f4 [32]
00000000: c48f afbc 6fa7 84bb 379a a93b c0f0 5b3e
00000010: 8c3e 493e b630 ebbd b737 5f3d ef6d a13d
00000020: ec89 9d3d c3d6 d43d b2e3 aa3c 0015 00bd
00000030: 3eb9 1e3e 6667 debc 0feb f93d 56d6 9ebd
00000040: c954 d9bc 20d1 6a3e 273e 9c3d df42 11be
00000050: cdb4 dbbd cb4f e2bd 54de 49bd 3cda 2b3e
00000060: 0fbd 713d 0921 823d 5b18 0f3c 1b96 44bd
00000070: 5d59 e33d fcd1 eebd 1311 93bd a310 0fbe
-0.021430857 -0.00404828 0.0051758545 0.21478558 0.19652766 -0.114839 0.054496493 0.07882296
0.07692322 0.10392525 0.020860527 -0.031270027 0.15500352 -0.027148914 0.12203037 -0.07755725
-0.026529687 0.22931337 0.07629042 -0.14185666 -0.107278444 -0.110503756 -0.049284294 0.16782469
0.05901819 0.06353957 0.008733834 -0.047994714 0.11101029 -0.11661145 -0.07180991 -0.1397119

hidden_layers.1.weight f4 [128, 32]
00000000: 9b44 2abe 0af4 a1bd eee5 dd3d 104c 52ba
00000010: 197d c03e 1de9 99bc 3378 96bd 233d 2ebc
00000020: 20d3 de3c e524 763d 4c96 e7be d07d b43e
00000030: 15f9 b23d d81f b0bd dcf8 173e e82c 523e
00000040: 83eb 113c a93c 433d 2733 063e acaa a4bc
00000050: 3772 1d3e 296a 1fbd 71ae 763d 09fb dbbb
00000060: 4858 d4bb c50e 133e 6e8b dfbb 0376 92be
00000070: 8af6 c9bd bc04 d7bd a71f 67be 3838 0d3e
00000080: 3a99 033e fa2b 2dbe a1ef c73d ade1 953d
00000090: e24c f53d a668 3ebe ee82 e83d 3fa6 b73d
000000a0: 1236 423e a8fc c0be f362 423e e0d9 9f3d
000000b0: 7ee6 c3bd c2bc 0dbd 7d07 de3d 68fb 4abe
000000c0: 8a89 e0ba 9152 2f3c 8f03 fa3c eac5 4f3e
000000d0: 4d74 793d e0c8 3c3e 759b ccbd ff07 e23d
000000e0: c9b3 98be b943 51bc 04b2 cc3d 139e f0bd
000000f0: 6845 a53e dafa 9e3d 83b6 c0bd 384f ae3c
00000100: 2332 35be 9689 8fbd 1d42 183e 1151 813e
00000110: befe 2d3d 03fe 91be 36ae 49bd 29b3 c83d
00000120: 27c9 84be c7af 0e3d 41d8 be3d ae21 9bbd
00000130: 66b6 b0bd 5a94 03be 932d 6dbd b1b6 e2be
00000140: 29cd d1bd 1a49 b4bd a925 623e f8a1 04be
00000150: ddca adbc 1e88 babd 6e30 e23e 000d 873e
00000160: ca6b 073e 4382 1dbe dfb8 96bd 96aa bcbd
00000170: dbc8 2fbf a455 54bc 2b70 f7bb 7389 afbd
00000180: f1af b0bd a9be 67bd 811c 0e3e abd4 133e
00000190: 4520 90bd e1c6 4abe 70c5 eb3c 297d 09be
000001a0: 2bd4 ca3d c264 b2bd 2094 bcbd 1219 a8be
000001b0: b563 c8be bf06 113e 55b5 933c 5e41 a0bd
000001c0: 14a4 96bd d329 9dbe 7890 c3be e635 56be
000001d0: 5422 883d 6af1 943e 601b b3bd cf88 b1bd
000001e0: e73d 733e 39a8 5abd e924 a33e f080 303e
000001f0: a481 a2be 6d9a 623d b8a1 083e 7621 bebd
00000200: abdc 44be ab3f 03be 9015 cc3d a438 2ebe
00000210: 507b b4be 56a3 003e d913 173d 969f 273e
00000220: bb73 873e e5d1 863e fbb1 3ebe 9cf2 4a3e
00000230: dcd3 4abe 5e8f 36be fff4 203d 62a2 e9bc
00000240: 528e 7a3e d43b 1ebb 6f21 3fbe b3ec 053e
00000250: 5732 2e3d 7d57 e43c 851a 9dbd af82 1abd
00000260: cd3e 5ebe 2f4a 153e 78e7 a3be d798 2b3e
00000270: 8577 2cbe 7165 903d 2cf0 0bbd 698c 143e
00000280: 4329 8d3d e8aa 0e3e 719b c43d 6931 b1bc
00000290: 0acc 4e3e 6fdc 22be 9eae c83c f2e4 e13c
000002a0: 29a3 e73d 736a ae3d 9f4e 5ebd a1c6 2cbe
000002b0: f860 01be 0dea 9f3d 18e2 c2bd 5a2c 02bd
000002c0: cdcc c1bb 3b1e 643e 39a2 0a3e 880d 29be
000002d0: a2ca aabd feab bb3b 4d04 a5bd 9cad 803d
000002e0: 8b02 bbbd c7f5 93be 850c cabe fe96 823d
000002f0: 9a7b 4cbe 2909 ffbd c493 99be 3d5b 4cbe
00000300: c0dc 003d 8e94 19be d88a c43d 014e d3bc
00000310: acd3 8d3d 491a bbbc 3d7d 983e 7bce 87bb
00000320: b166 213e baa6 33be 0ae7 95be 0827 3a3d
00000330: 373e ed3d 7080 aebe df8d 97bd a86e d1bd
00000340: 0494 67be 1231 bc3d 1e17 f83d 9a4f a7bc
00000350: b024 77be 967b 49be 01cb 7ebe 8f03 723d
00000360: e397 253e e516 74be 5c46 7a3c a95d e9bd
00000370: fc14 2cbe 4d27 b7be 9615 8fbd b4e1 7a3e
00000380: d334 f53b e44d 9e3e efe7 0ebc e1b3 96be
00000390: 902d 94bc 6812 163e aa8c 9bbd ef78 8d3d
000003a0: 29d1 53be f005 b9bc 58e2 503e 90e2 a23d
000003b0: 8ffe 773e 2906 0cbd 2c68 a2bc 93ac 01be
000003c0: 56a6 4f3d b69c acbc 1521 823d e630 e53d
000003d0: d37e 17be 897c e9bc 56a7 a6be 9ae2 89be
000003e0: 3062 3abd 677f 07be 3f98 433e b38a 1f3d
000003f0: ecc8 4c3e 41bb 4abe 72e2 483e 0069 163e
-0.16627733 -0.07907875 0.10834871 -0.00080221985 0.37595442 -0.018787915 -0.07347145 -0.010634693
0.027200282 0.06009378 -0.45231855 0.35252237 0.08738915 -0.08599824 0.14841026 0.20524943
0.008906248 0.047665272 0.1310545 -0.020100914 0.15375601 -0.0389196 0.060224954 -0.0067132753
-0.0064802505 0.14361103 -0.0068220412 -0.2860566 -0.09861477 -0.1049895 -0.22570668 0.13790977
0.1285142 -0.16911307 0.097625025 0.07318435 0.11977555 -0.18594608 0.11353098 0.08967256
0.18965939 -0.3769276 0.18983059 0.07805228 -0.09565447 -0.03460384 0.10841272 -0.19822466
-0.0017130834 0.010700838 0.030519275 0.20290342 0.06090193 0.18436003 -0.099905886 0.110366814
-0.29824665 -0.012772494 0.09994891 -0.117489 0.32279515 0.0776269 -0.09409811 0.021278009
-0.17694907 -0.07008664 0.1486897 0.2525716 0.04247927 -0.28514108 -0.049238406 0.09799797
-0.25934717 0.034835603 0.09318591 -0.07574783 -0.0862854 -0.1284956 -0.05790479 -0.44280007
-0.10244209 -0.088030055 0.22084679 -0.12952411 -0.021214897 -0.091079935 0.44177574 0.26377106
0.13224712 -0.15381722 -0.0735948 -0.09212224 -0.68665856 -0.012959871 -0.0075512133 -0.08571138
-0.08627308 -0.056578312 0.13878061 0.14436595 -0.07037405 -0.19802429 0.028780669 -0.13426651
0.09903749 -0.08710624 -0.0920794 -0.32831627 -0.3913857 0.1416273 0.018030802 -0.07824968
-0.07355514 -0.30695972 -0.38196158 -0.20918998 0.066471726 0.29090434 -0.08745456 -0.08668672
0.23754083 -0.053383086 0.31864098 0.17236686 -0.31739533 0.055323053 0.13342941 -0.09283726
-0.19224803 -0.12817256 0.0996505 -0.17013794 -0.3525033 0.12562308 0.036884163 0.16369471
0.26455483 0.26332012 -0.18622582 0.1981911 -0.1980738 -0.17828128 0.039296146 -0.028519813
0.24468353 -0.0024144547 -0.18665098 0.13078575 0.042528477 0.027873749 -0.07671074 -0.037722286
-0.21703644 0.1457908 -0.32012534 0.16757523 -0.16842468 0.070505984 -0.034164593 0.14506687
0.06892636 0.13932383 0.095999606 -0.021630006 0.20195022 -0.15904401 0.024497326 0.02757499
0.11310417 0.08516397 -0.054274198 -0.16872646 -0.12634647 0.078083135 -0.0951578 -0.03178058
-0.0059143067 0.22277157 0.13538446 -0.16509068 -0.083394304 0.00572729 -0.08057461 0.06283113
-0.091313444 -0.2889845 -0.39462677 0.06376456 -0.19969025 -0.12452919 -0.2999555 -0.1995668
0.031460524 -0.14998075 0.09596795 -0.025794031 0.06925139 -0.022839682 0.2978305 -0.0041444874
0.1576183 -0.1754407 -0.2927783 0.04544738 0.11584132 -0.34082365 -0.07400107 -0.10226184
-0.22615057 0.09189047 0.12113784 -0.0204237 -0.24135089 -0.1967605 -0.24882127 0.059085425
0.16171221 -0.23836859 0.015275564 -0.113948174 -0.1680488 -0.35772172 -0.06986539 0.24500161
0.007483104 0.309188 -0.008722289 -0.29434112 -0.018088132 0.14655459 -0.07595189 0.06907832
-0.20685257 -0.022585839 0.20398843 0.079533696 0.242182 -0.034185562 -0.019825064 -0.12663488
0.05069574 -0.02107082 0.06353966 0.11190967 -0.14794473 -0.028501766 -0.32549542 -0.26930696
-0.045503795 -0.13232194 0.19101046 0.038950633 0.1999852 -0.19797994 0.19617632 0.14688492

hidden_layers.1.bias f4 [128]
00000000: 0c4f 07be fff5 69bd bcde 1fbd c7d1 5bbc
00000010: cfff e73d 2efb 673e 602d 613e 2708 0e3e
00000020: 7391 1abe aa4b 443e 15a9 bb3d 117e ce3d
00000030: 034b 25bd dc64 97bc f02f d8bd 173a 8fbd
00000040: 00bd 61bd 924e 80bd cb74 2ebe c79c 373d
00000050: 1555 28be faed 44be 70d6 bb3d b560 c4bd
00000060: be40 a83e c4b0 013e f412 0ebd 596f 93bd
00000070: 2c11 11be 73bc 9f3c 6d27 f2bc 43ec 90bd
00000080: 4350 ef3d 3141 533c 57b9 6c3d 3aae 9cbd
00000090: 353d 01be 8b8a 11be 2628 a13d 71d2 183e
000000a0: 0cc7 d3bd 1dd6 703e b211 813d c20d 0bbe
000000b0: 71a4 533d 0f0b 363e 49b7 093e cebf 3e3e
000000c0: 0b9a eabd dde2 d9bc af33 8c3e 25db 753c
000000d0: 26c7 453d 6382 b53d c46f 833d 7da5 33be
000000e0: 6e4e 41be fce4 c23d 71c3 cf3d ad14 d73d
000000f0: 0ac0 28be f869 963c 40a9 433e 88c5 cb3d
00000100: 3077 ef3d 9620 b03d b263 cc3b 4e6d 07be
00000110: 725a 26be dff0 4c3d 37e2 f03b 3461 993d
00000120: 8fe3 453d b184 553e 6393 0f3e 22c6 bd3d
00000130: 4b6e 6e3b 9916 6b3e 8b10 b8bd 8c37 49bd
00000140: 3f6f 5fbd cc7b 44bd e581 383e 57f4 99bd
00000150: 53a3 093c c8ee 60bc 8091 73bd cc2d 1fbe
00000160: aced dd3d 132c 0bbe e11b 06be dde3 313e
00000170: 41b1 1dbe d155 c53d 6722 1b3d 7a7b 23be
00000180: 77cd b63d 6fdc 0c3e 1af0 413e 68f1 9c3d
00000190: cd9e 303e 290d 453b aa8a fabc ce17 953d
000001a0: 86ba 1cbe d94d 78bc f76e 42be 4d6b 863d
000001b0: 7871 aa3d 38f1 30bc e744 1d3d e1e4 ad3b
000001c0: 0e88 0abe 6111 f5ba fbd1 df3d 2bd0 113c
000001d0: 8716 a13b b720 573e cfb1 fd3d 2d23 65bd
000001e0: 6e45 ac3d 3e33 3ebe f29f 573d 5ec4 283e
000001f0: d9eb 07bd 5fb3 06bd 967c 54bd 2d95 19be
-0.13213748 -0.057119366 -0.039030775 -0.013416714 0.113280885 0.22654411 0.21989965 0.13870297
-0.15094547 0.19169489 0.09163109 0.10082639 -0.04035474 -0.01848071 -0.10556018 -0.06993502
-0.055111885 -0.06264986 -0.1703674 0.04482725 -0.16438706 -0.19231406 0.0917176 -0.09588758
0.32861894 0.12665087 -0.034686044 -0.07198972 -0.14166707 0.01949904 -0.029559815 -0.07076313
0.116852306 0.012893961 0.05779394 -0.076504186 -0.12621005 -0.14213006 0.07868986 0.14924027
-0.103406996 0.23519178 0.06302203 -0.13579467 0.051670495 0.17777656 0.13448824 0.18627855
-0.114551626 -0.026597435 0.2738318 0.015005861 0.048285626 0.0886276 0.06417802 -0.17543598
-0.18877575 0.095163316 0.10144699 0.105019905 -0.16479507 0.018361077 0.19107533 0.099497855
0.11692655 0.08599965 0.0062374705 -0.1322529 -0.1624544 0.0500344 0.0073511857 0.07489243
0.04831272 0.20851399 0.14021067 0.092663065 0.0036381658 0.22957839 -0.0898753 -0.04912524
-0.054549452 -0.047969624 0.18018301 -0.07517307 0.008400756 -0.013728805 -0.05946493 -0.15544814
0.10836348 -0.13591032 -0.13096572 0.17372079 -0.15399648 0.09635509 0.037874606 -0.15965071
0.08925908 0.13755964 0.18939248 0.07663232 0.17248078 0.0030067659 -0.030583698 0.07279931
-0.15305528 -0.015155279 -0.18987642 0.06563435 0.08322424 -0.0107996985 0.03839579 0.0053068255
-0.13528463 -0.0018697196 0.109287225 0.008899729 0.0049160155 0.21008573 0.1238743 -0.05594175
0.0841168 -0.18574235 0.05264277 0.16481158 -0.033183906 -0.032885905 -0.051876627 -0.14998312

hidden_layers.2.weight f4 [521, 128]
00000000: 8cf9 20be 60bc 0dbd 69ac 25be cf7d 8fbe
00000010: 1383 6abd fbbb 48be 2b19 1f3e 63e1 ed3d
00000020: dcd1 79be f9ce 2fbd 585c 04be 1c1b b1be
00000030: fce2 f5bd 51d4 183d bb74 243e cd40 54be
00000040: 462c 18be 9ba2 7cbe 1fe3 06be 24d7 1e3d
00000050: 72c2 cf3d 32c0 d33c e8c5 323d 807e bbbb
00000060: 7267 10be 5a90 12be 7107 85be 9c67 52bc
00000070: 2681 82be fd6f 2dbd 1607 4e3d b0b4 f9bd
00000080: f461 69be 8b7a 2b3e 3079 6abe 6577 e0bd
00000090: 52e4 88bd 0a25 1bba 4b87 26be b038 9f3b
000000a0: 7267 94bd 256e 14be 14ab b2bd 7026 32bd
000000b0: 27aa 6abe acb8 73be e6de 9dbb 215c 3a3e
000000c0: b365 d13d 640e 413c 311b f6bb ca57 11be
000000d0: ef47 27be f11c 18be ae77 fb3b 09eb 1e3e
000000e0: 46d8 853d f9fd 5bbd 447c d3bd c99d 64be
000000f0: 934f b3bd 4d10 01be 148a 953d e66c 72be
00000100: 4beb 5abe 896f 943d 7368 c53d 593d 5abe
00000110: f008 93be a807 12bc 5e39 99bd 593a 2e3e
00000120: 5a9e d2bd 22ba 56bd 50c5 75bc a969 ecbd
00000130: 24e0 76bd 480c 82be 81a1 7dbe 6ffb 5ebe
00000140: bc30 afbe 287c 873d d2ec f4bd 50d1 81be
00000150: dd42 04bc 47e6 853c 4adc 8cbc fe52 ecbd
00000160: f1be 12bd 469a e4bd b2c6 06be 291e 3cbe
00000170: aa0b f5bd 0123 97be 5dbf 5bbe c692 86b8
00000180: 5146 74be 3672 933d 2839 a53d 7c97 cdbc
00000190: df8a 82be 2f5f f4bd 66b3 a13d 7db4 9abd
000001a0: ceb1 6f3d 3f24 a4be b7ea f33d 64b3 6ebe
000001b0: aae2 23bc 45bf e6bc f65b 9b3d 3dbf 86be
000001c0: eb21 c13d 212d adbd c63f b0bd 5f9e 533e
000001d0: 82f3 a4bd ccda 8fbe 63c8 73bd 97c3 cabd
000001e0: ae33 bdbd 9381 aebd 0e8f 353d 9cfd e1bd
000001f0: a6d7 54bd fefc 8cbd 869f 293d 593a 00be
00000200: 98d7 2b3e f80e 6c3c a3d5 3bbe 99f8 3e3e
00000210: 59c3 a8bd 4c17 9abe 8af2 2cbe 0c5f 2a3d
00000220: adc6 93be 5291 643e 48bb 42bd b08b 4a3e
00000230: 1eb6 fa3d 77a5 8e3d da98 373d 38ef 523d
00000240: 0fe1 243e 486d bb3d a17e 2a3b db8c be3b
00000250: 475c f9bd 3b01 22bc 5648 acbd 85e4 e7bd
00000260: 5a6b 083d c836 a33c ef9d 613e 9e3e 833d
00000270: c275 2ebe a8bb 113e 7b57 babd fde0 62bd
00000280: 993f 2a3e 14be 823b 3186 04be bfbc 9f3d
00000290: ed26 ecbd 0918 35bd 2ad2 d33d 0faa 513d
000002a0: 7ee1 893c 0426 6e3d 9e13 38be a570 89bd
000002b0: 9570 e63b 3fd3 aebe 8443 a7bd 6af5 d4bd
000002c0: db8a f13d 137c 00bd a305 54bc 219e 37be
000002d0: 90ac 50bd 0c4e d13c 32d9 813c 0ddc 36be
000002e0: bbc3 98bc 2426 843d c137 0e3d 3775 943d
000002f0: 4306 74be 44d9 093d a1db 9a3d 8366 a93d
00000300: f72f 6b3e 5fcc 273d a77d 9b3d f654 4f3d
00000310: e3d3 813d 7ee6 02be 9aca cb3d c282 b63c
00000320: fd73 8b3e 818d 883d 6424 3cbe ba1a 243d
00000330: 7f8a 40be 7ba8 693e a938 073e dfe7 f63b
00000340: d1b7 52be 838e 8cbd 65f3 823d e005 70be
00000350: 84ec bc3d 9a18 123e 7119 88ba 6fe6 6fbe
00000360: 3408 123e 53ff 933d 8020 90be 4aa1 5dbe
00000370: 21b6 7a3d d850 f2bd e2fd 0c3e dce5 4c3e
00000380: 3c9f dcbd 5804 02be ca0d e1bd 0674 b93b
00000390: abf8 11be 249b a93e 8d45 14bd 615c c7bd
000003a0: 0b4a b03d 2f57 e53c 9548 b5bd c69e 95be
000003b0: 9c0d fb3d 40e7 b8bd 2056 c2bd 1ecb 03bd
000003c0: a58a c43c 75cd 913d b86e 473d f234 353e
000003d0: 8fc8 22bd a7ed 5d3d c26b 0f3e d02e 82ba
000003e0: b433 aa3c 720f 463d 8731 d03d 57e6 22bb
000003f0: ed6b f839 cb4b e23c 9315 433d 9759 f0bc
-0.15720195 -0.034603477 -0.1617905 -0.28025672 -0.05725391 -0.19602959 0.15536945 0.11615255
-0.24396461 -0.042921994 -0.12925851 -0.34590995 -0.120061845 0.037311856 0.16060154 -0.20727845
-0.14860639 -0.24671404 -0.13172577 0.038779393 0.101445094 0.025848482 0.04364577 -0.005721867
-0.14101961 -0.14312878 -0.2598224 -0.012842085 -0.25489157 -0.04234313 0.050299726 -0.121926665
-0.22791272 0.16745965 -0.22897792 -0.10960273 -0.06684174 -0.00059183 -0.16262548 0.0048590526
-0.07246293 -0.14495142 -0.08724037 -0.043493688 -0.2291647 -0.23800915 -0.0048178313 0.18199207
0.10224476 0.011783216 -0.0075105657 -0.14193645 -0.16336034 -0.1485479 0.007674179 0.15519346
0.065353915 -0.053709004 -0.10326436 -0.22325815 -0.08755412 -0.12603875 0.07301727 -0.23674354
-0.2137882 0.07247836 0.09639063 -0.21312465 -0.28717756 -0.008912958 -0.07481645 0.17014445
-0.102841094 -0.052423604 -0.015000656 -0.115435906 -0.06027235 -0.25399995 -0.2476864 -0.21775602
-0.3421687 0.06615478 -0.119592324 -0.25355005 -0.008072582 0.016345156 -0.017194886 -0.11539267
-0.035826627 -0.11162238 -0.13161734 -0.1837088 -0.11965115 -0.29518893 -0.21459718 -6.4169566e-05
-0.23854949 0.071995184 0.08067542 -0.025096647 -0.25496575 -0.11932217 0.07895546 -0.07553957
0.058519177 -0.32058904 0.11910003 -0.2331062 -0.010002771 -0.028167376 0.075858995 -0.26317778
0.094302975 -0.08455873 -0.08605914 0.20665883 -0.08054258 -0.28096616 -0.059517276 -0.09900587
-0.09238373 -0.08520808 0.04432588 -0.110347 -0.05196347 -0.06884192 0.0414119 -0.12522258
0.16781461 0.014407866 -0.18343215 0.1864952 -0.082403846 -0.300959 -0.16889396 0.04159455
-0.28862515 0.2232106 -0.047541887 0.19779849 0.12241767 0.06965154 0.044823505 0.051497668
0.16101478 0.09151703 0.0026015418 0.005815131 -0.12175804 -0.009887989 -0.084122345 -0.113228835
0.033305503 0.019923583 0.22032903 0.06408428 -0.17037109 0.14231741 -0.09098717 -0.055390347
0.16625823 0.0039899442 -0.12941815 0.07799672 -0.11530862 -0.044212375 0.1034282 0.05118757
0.016831156 0.058141723 -0.17976233 -0.06710938 0.007032464 -0.34145543 -0.081671745 -0.103983715
0.11794063 -0.031368326 -0.012940797 -0.17931415 -0.05094582 0.025549911 0.015850637 -0.1785738
-0.018648019 0.06452587 0.03472114 0.072489195 -0.23830514 0.033654466 0.07561422 0.08271506
0.22967516 0.040966388 0.07592326 0.050618134 0.06339242 -0.12783238 0.099507526 0.022279147
0.2723693 0.06667615 -0.18373257 0.04006455 -0.18802832 0.22818176 0.13205208 0.0075349654
-0.20577933 -0.068631195 0.0639408 -0.23439741 0.09224799 0.14267197 -0.0010383559 -0.23427747
0.14260942 0.072264336 -0.28149796 -0.21643558 0.061208848 -0.11831826 0.13768724 0.2000956
-0.10772559 -0.1269697 -0.10988958 0.005659583 -0.14255016 0.33126175 -0.03619914 -0.09734417
0.086078726 0.027995674 -0.088517345 -0.29222697 0.12258455 -0.090284824 -0.09489083 -0.03217613
0.023991892 0.07119266 0.048689574 0.17695978 -0.03974205 0.05418172 0.1400595 -0.0009932164
0.020776607 0.048354574 0.101656966 -0.0024856532 0.00047382657 0.027624032 0.047627997 -0.029339595

hidden_layers.2.bias f4 [521]
00000000: bb88 38bd 26fb 12be 66c6 febc 9541 63bd
00000010: 5e81 823e 18d3 b6bd a16c b0bd 89bd 383c
00000020: 0642 b5bc 91e4 14be 9466 c2bd 3d49 103e
00000030: 8638 70bd 2b32 14be b627 04bd 5740 a3bd
00000040: fdca febb 0c56 3b3d b3ea dbbc 6331 1ebe
00000050: 8e99 c8bc 510c 51bd 605f d43d c4b5 a2bd
00000060: dfb9 483e 37bc eabd 6dee 843c 9286 ebbd
00000070: 2c11 62bc 3e82 c9bd 0085 353c cca7 bfbc
00000080: 2425 7cbd bcbe 89bd ea81 0dbc af02 92bd
00000090: 1e36 9b3d 5443 f7bc e221 033d d3da da3d
000000a0: 00e4 22bd b81f 1bbe 674f e6ba e294 afbd
000000b0: 4cb6 b0bc a254 0d3d af9f 563e 9201 33bd
000000c0: f2fd 90bd c392 95bd e5da fe3c d226 9e3d
000000d0: 2f54 db3c 7980 ccbd f139 32bc e86e 313d
000000e0: a7d1 da3c a1a6 bfbd 8e6a d4bc 34e3 b23b
000000f0: 406a 00be 34d4 f03c 686e 833d 1783 cd3d
00000100: 9d8a 30be d4c7 a0bd 2df1 173a 7817 85bc
00000110: b197 2abd 53f5 5bbd 7b35 6dbd 5849 38be
00000120: d033 98bd d86d db3c b56a 10bc 3f75 3bbe
00000130: 24ff 0c3a 0490 83bd fcbb 96bd 6fcf eebd
00000140: 6951 0c3e 8f01 fb3b 3113 7a3c 232d 2dbe
00000150: aad7 56bd 45a9 9b3d 8d2b 9abd 73c2 203c
00000160: 4e12 96bd b373 f3bd ac21 02be 9b27 16bc
00000170: 19f1 1d3d 0cac 7b3b 20b7 95bd bff3 43bd
00000180: 0ad7 af3d f762 8d3d 2ba9 7d3c f34f 9b3e
00000190: 25de 53bc 4946 98bd 11bb bdbd ce8c 82bd
000001a0: e9f0 1b3d ef0c ae3c 1a89 27bd bbdb 2fbd
000001b0: 5c7b c5bd 3932 f9bd 9797 913d 1c47 bcbd
000001c0: 0c9b 583c 0aca 773b b93f 16bd 8bc3 b8bc
000001d0: aadc 98bc 9870 d13b 2038 08bc d289 d03c
000001e0: 7229 cfbd b201 d6bd e3b8 6a3d f950 2bbd
000001f0: d202 973d 1c1e f2bd 3845 dabd 9a84 a93c
00000200: 80a5 cebd f70f a0bc 9e0b 32bd 00e6 483d
00000210: 2455 b8bc f5df cbbc c5b1 f4bd 892d 3d3d
00000220: 87e0 f5bc d892 8abd f6ac aebd efd8 b7bc
00000230: 327d e73c 4d56 b03d 5420 f93c b61c d6bd
00000240: 692e ab3c ba9d be3c 5648 bbbc d7d3 b5bc
00000250: 8150 a03e bb8c 86bd 240e 0cbd 20de 68bd
00000260: cc0b b13d fe43 ac3d 46a4 f3bc 2b58 843d
00000270: 5273 44be 23d6 b8bc 6f86 18be dcce 05be
00000280: b820 cebd 6b41 3fbd 5e22 8dbd d3d8 163e
00000290: 74aa 71bd 47e8 b73e de28 a9bd 4ea6 c63c
000002a0: a2d8 ad3d 9e69 c43c 719d c7bc 7e40 3d3e
000002b0: d8d1 0d3c e43c a5bd d8f1 ffbc 56ce f33c
000002c0: 5594 85bd 2cce dabc e707 a93d c728 1a3e
000002d0: 7182 1d3c 5311 c03d 5098 e7bd 7137 073d
000002e0: 55ce 78bb f772 c9bc 9677 8dbd c52c 44bd
000002f0: caae 6cbc 95c1 48bd a3fc 5b3d d497 74bc
00000300: de13 993c 70ef 013e 417c d83d ebce ffbd
00000310: 6471 56bd e2aa f3bd 29ae a1bd 74d5 e7bd
00000320: 2f33 34bd 4fd3 a6bd 7c6c 603d 8fc2 47bd
00000330: 7741 debc 813c 08be c827 a93d 6911 6a3d
00000340: bf6f 8abd 5a8b 4d3d d215 17be c7c7 9fbd
00000350: a8c5 a0bd 9cf2 893e 34d3 0c3d 3305 8bbb
00000360: e582 eabc e923 b9bd 9cd2 20bd a358 9bbc
00000370: 770f 5c3a 9c0c 223d c190 cbbd 9c59 6bbd
00000380: f299 ccbc 084b 3e3c 94c5 c33c 99ac c63c
00000390: b930 e4bd d6ce 72bc 7ee4 57bd 7823 a93c
000003a0: ede1 e03d 0865 11bc 957b c93e b3e2 7cbd
000003b0: 2de8 d1bd ce23 03bd bdcd 073c f07a 50bd
000003c0: 2287 19bd de69 f7bc 1eef 72bd b6c8 74bd
000003d0: ee06 bebd 8a93 2ebe 61bf 98bd 1990 d13e
000003e0: ac99 d1bc 3861 bfbd 4a01 e0bd 999a a03c
000003f0: 3a94 e4bc 5986 883d d5ac e7bd 825d 9b3c
-0.04505227 -0.14353618 -0.031100463 -0.055482466 0.25489324 -0.08926982 -0.08614469 0.011275657
-0.022126209 -0.14540316 -0.094922215 0.14090438 -0.058647655 -0.14472263 -0.032264434 -0.07971256
-0.007775663 0.045736358 -0.026845312 -0.15448527 -0.024487283 -0.051037136 0.10369754 -0.07944825
0.19602154 -0.114616804 0.016226972 -0.115002766 -0.013798039 -0.09839295 0.011079073 -0.023395441
-0.061558858 -0.06725833 -0.008636931 -0.07129418 0.075786814 -0.030183472 0.032014735 0.10686269
-0.03976822 -0.15148818 -0.0017571271 -0.08573319 -0.0215713 0.03450454 0.20959352 -0.04370267
-0.07079686 -0.07303383 0.031110236 0.07722248 0.02677354 -0.09985442 -0.010878072 0.04331866
0.026711298 -0.09357954 -0.025929715 0.0054592136 -0.12540531 0.029398061 0.06417543 0.10034769
-0.17240377 -0.07850614 0.0005796131 -0.016246542 -0.04164857 -0.053700756 -0.05791233 -0.17996728
-0.074317575 0.026785776 -0.008814503 -0.18306445 0.0005378595 -0.06423953 -0.07360074 -0.116606586
0.1370293 0.007660098 0.015263365 -0.1691175 -0.052451767 0.07600645 -0.07527838 0.009811985
-0.0732771 -0.11887302 -0.12708157 -0.009164716 0.038560007 0.0038402108 -0.07310319 -0.047839876
0.08585937 0.06903642 0.015482227 0.30334434 -0.012931381 -0.07435281 -0.09264196 -0.063745126
0.038071547 0.021246402 -0.040902235 -0.04293416 -0.096426696 -0.12167782 0.071089916 -0.091932505
0.01322056 0.0037809634 -0.036681864 -0.02255418 -0.018659908 0.006391596 -0.0083141625 0.025456343
-0.10115327 -0.10449542 0.057305228 -0.04182527 0.07373585 -0.11822149 -0.10657734 0.020693112
-0.1009016 -0.019538863 -0.04346811 0.04904747 -0.022501536 -0.024887064 -0.11947969 0.046186004
-0.03001429 -0.067662895 -0.085290834 -0.02244231 0.02825794 0.086102106 0.030410923 -0.10454695
0.020896154 0.02326857 -0.02286164 -0.02219574 0.3131142 -0.06569811 -0.034193173 -0.05685246
0.08644828 0.08411406 -0.029741418 0.06462129 -0.19184616 -0.022563046 -0.14895032 -0.13067192
-0.10064834 -0.046693247 -0.06891321 0.1473115 -0.059000447 0.359194 -0.08259748 0.024249222
0.08488585 0.023976143 -0.024367066 0.18481633 0.008655988 -0.080682546 -0.03124325 0.029761475
-0.06522433 -0.026709639 0.082534604 0.15054618 0.009613619 0.09378304 -0.11308348 0.033011857
-0.003796478 -0.024590952 -0.06907575 -0.047894258 -0.01444597 -0.04901274 0.05370773 -0.014928777
0.018686231 0.12688994 0.105705746 -0.12490638 -0.05235423 -0.11897828 -0.078945465 -0.1132001
-0.043994125 -0.08145773 0.05479096 -0.04876953 -0.027130825 -0.1330433 0.08259541 0.05714551
-0.06759595 0.050181724 -0.14754418 -0.078017764 -0.078502 0.2694291 0.034381106 -0.004242563
-0.028626869 -0.090400524 -0.039263353 -0.018963164 0.00083946384 0.039562806 -0.09939719 -0.057458505
-0.02497575 0.0116145685 0.023897924 0.024252223 -0.111421056 -0.014819821 -0.05270814 0.020646796
0.10980592 -0.008874185 0.39352098 -0.061739635 -0.10249362 -0.032016568 0.008288798 -0.050898492
-0.03748239 -0.030201849 -0.05931007 -0.059761725 -0.092786655 -0.17048469 -0.07458378 0.4093025
-0.025585972 -0.09344715 -0.10937746 0.019604968 -0.027902711 0.0666625 -0.11312262 0.018965486

output.weight f4 [4, 521]
00000000: 6294 2abe dce8 fb3d a6d9 fabc d989 093e
00000010: dcee dc3d 444e 003d 54c4 8a39 38f5 adbc
00000020: 2135 5dbe cf67 e7bd 9554 5c3e df08 423e
00000030: 367f 1f3e 495f edbd 542a 163e 1249 66bc
00000040: e113 663e da64 ee3d 893a 97bd 3144 d9bd
00000050: f53e 94be e2e0 0a3e 08e9 943d a9d4 823d
00000060: 4ae6 4f3d 8c70 30bb 1621 22be f06f febd
00000070: 2486 f53d d3ae b0bc c441 c53d c968 b6bd
00000080: 73ee a8bd 0f50 813d cb74 eb3d a060 cabd
00000090: 9db1 413d e035 763e 0db2 243d a098 243e
000000a0: 394d f13c db59 a2bd 3965 dd3d 36a6 a53d
000000b0: 925b 4cbe d29a f03d 7da2 9d3d 9739 8fbd
000000c0: b076 8fbd 8a93 0abd 4afa a23d a508 133d
000000d0: 8a84 103c 266d 58bd 0c12 06bd 2194 f5bd
000000e0: 495a 9a3c 0906 043d 96e1 38be 6395 65bd
000000f0: b7a4 5cbd 032f 843d 3754 3dbb 06d7 a13c
00000100: 1681 8cbd f38a 573e 0ead 373c 7677 a63e
00000110: a320 81bb 183c f13c f23b be3c af66 a7bc
00000120: 9637 3bbd 80ea a13c a947 9c3d b6ab 20be
00000130: 224c 32bd 7177 833d 8027 e33c 2998 c3bd
00000140: 652f b83d 265d a7bd 21d6 10be 1d4e d9bd
00000150: 4ec6 b43d d399 3e3d 0e69 0c3b 1e6d dc3d
00000160: d9ac 90be 03dd 043e e765 8cbd 7a00 10be
00000170: 7299 8e3d c296 df3d 17b6 603d b2a1 ed3d
00000180: 3a9b 803d cc33 463d 6da7 d33d 992a c83d
00000190: c3cb babd 7566 823c d274 46be 54ea fbbb
000001a0: b6d5 7bbe d07a a6be 8321 a9bd b4ac 44be
000001b0: af26 18bd 7648 233e 6924 a63c 8549 e33d
000001c0: 53dc 713e c4cd 0bbe e9d8 bc3d 74a4 943d
000001d0: 4cc2 d43b 0a49 f73c 2a08 a3bb c14d 41be
000001e0: 067f 1abd 102a 21bd 30da 3a3e 9550 a43b
000001f0: 7318 453d 4bf3 75bc b22a f9bc bdd2 873b
00000200: ef14 ddbb dbf4 3d3d e3da 6a3d 0e19 89be
00000210: 9427 23be c1df c3ba e907 47bd 3f7e f83d
00000220: 0991 c1bd de56 163e 75c0 babd 4e20 ea3a
00000230: 72ef d23d d1e2 c93c bb52 22bd 676e 083e
00000240: 8561 963d 61e5 08be f882 653e 0fae 74be
00000250: 40b7 d23d 5a6d 17bd df1b 26be 4264 00bd
00000260: 0c5e 983d 8ab4 0d3d 1fce 873d 8786 253c
00000270: 6717 08be 0c16 273e edf7 87bd 563f 50bd
00000280: ef65 edbd 158a 8a3d 7007 cabc 51d1 3f3e
00000290: fd08 3e3e 1271 023e cb45 a53c d75b 39be
000002a0: c2e4 773e af33 583e 9600 b0bb 147c e23d
000002b0: 4ed4 0c3e 3262 cbbc a524 59bc 4d10 503d
000002c0: 135e 8cbe ec94 db3d e38d 813b d04a 8c3d
000002d0: ab8d 68bc ca6b 953d 3c54 8a3d 3491 d43d
000002e0: 97cf ac3c 3818 91be 444a aabd 282f a1bc
000002f0: 4f0c fc3d bb34 df3c c900 1b3c 2857 e43d
00000300: 5429 133e f378 373e 4aee 543d 6ee5 17bd
00000310: e9df c43d 8b5d 86bd 4f9e 60bc b807 48bc
00000320: b7cc a83a a55c 05be 75b7 6d3e 42aa 423d
00000330: 2a82 473e f5ba 66bc a93e aa3d 404b 2cbe
00000340: cd4a 633d a7bb e2bd 7e1a 50be 3a4f e0bd
00000350: b6d4 bbbe 1a20 3e3d abad bcbd ee43 09bd
00000360: f8c4 a03d e908 46bd 1c20 e43a 6b73 9abd
00000370: 9666 da3c 384e 5dbc b66f 6fbd 163e 793a
00000380: 661b 73be 3e2b 343e 272d 95bc d3a9 2cbe
00000390: ffdc 35bd 2a43 03bd 4940 793e 29b1 5fbe
000003a0: 5b45 213d 0501 d33b 1f93 093e 1717 c13d
000003b0: 013a 1fbd a5ab 19bc 6856 60bd e292 a3bd
000003c0: 0354 1c3c 2e42 e3bd c681 a53c 9ad3 c0bd
000003d0: 0553 063c 65dd 00be fd4c f1bc eaef 163e
000003e0: 54ca 50bc 2122 303e 2423 0e3e 3632 8b3d
000003f0: 418a 4c3e 8ee1 933e 85a1 f6bc edbd 303d
-0.16658166 0.12300274 -0.030621361 0.13431491 0.10787746 0.03132464 0.00026467687 -0.021235093
-0.21602298 -0.11299097 0.2151664 0.18948697 0.15575871 -0.1159044 0.14664584 -0.014055507
0.2246852 0.1164033 -0.073842116 -0.106087096 -0.28954282 0.13562348 0.0727101 0.06388218
0.05075673 -0.0026922552 -0.15832934 -0.12423694 0.11988476 -0.021567738 0.096316844 -0.08906705
-0.082486056 0.06314098 0.11496886 -0.09881711 0.047288526 0.24043989 0.040208865 0.16073847
0.029455768 -0.07927295 0.10810322 0.08088343 -0.19956806 0.1174828 0.07697008 -0.06993406
-0.0700506 -0.03383211 0.07957895 0.035896916 0.008820662 -0.052838467 -0.032732055 -0.11991144
0.01884188 0.032232318 -0.18054804 -0.05605067 -0.05386802 0.06454279 -0.0028889307 0.019755851
-0.06860559 0.21049099 0.011210693 0.32513016 -0.003940658 0.0294476 0.023221944 -0.020434706
-0.045707308 0.019765139 0.076308556 -0.15690503 -0.043529637 0.06419266 0.027728796 -0.095505066
0.08993415 -0.081720635 -0.14144184 -0.10610602 0.08826886 0.046533417 0.0021424922 0.10763
-0.28256872 0.12974934 -0.06855374 -0.14062682 0.06962861 0.10917427 0.054861154 0.116031066
0.06279607 0.04838924 0.10334668 0.0977375 -0.09120896 0.015917996 -0.19380501 -0.007687846
-0.24593243 -0.32515574 -0.08258345 -0.19206506 -0.037146267 0.1594561 0.020281034 0.11098007
0.23619203 -0.13652712 0.0922106 0.072579294 0.0064928886 0.030186195 -0.0049753385 -0.18877317
-0.037718795 -0.039346755 0.18247294 0.005014489 0.04811902 -0.015011619 -0.030415867 0.004144995
-0.0067468802 0.04637609 0.057337653 -0.26776928 -0.15933067 -0.0014944003 -0.048591528 0.121334545
-0.094514914 0.14681575 -0.091187395 0.0017862411 0.10299577 0.024644287 -0.03962968 0.13323365
0.07342819 -0.13368751 0.22413242 -0.23894523 0.102888584 -0.03696952 -0.1622157 -0.031345613
0.07439813 0.034596004 0.06631111 0.010102875 -0.13290177 0.16317004 -0.06639085 -0.05084165
-0.11591708 0.06764618 -0.02466175 0.18732192 0.18558116 0.12738445 0.020174881 -0.1810144
0.24208358 0.21113466 -0.0053711636 0.11058822 0.13752863 -0.024827097 -0.013253366 0.050796796
-0.27415523 0.10721764 0.003953682 0.06850207 -0.0141939325 0.0729595 0.06754348 0.10379258
0.02109508 -0.2833879 -0.08314946 -0.019675806 0.12307035 0.027246824 0.009460636 0.11149436
0.14371234 0.17917232 0.051985063 -0.037084036 0.0961302 -0.06560811 -0.013709619 -0.012208872
0.0012878393 -0.13023622 0.23214515 0.04752565 0.19483247 -0.01408266 0.08312733 -0.1682558
0.055491257 -0.11070948 -0.20322606 -0.10952611 -0.36685723 0.046417333 -0.09212812 -0.03351205
0.07850069 -0.04834834 0.0017404589 -0.075415455 0.026660245 -0.013507418 -0.058456145 0.0009507848
-0.2374092 0.1759462 -0.018210007 -0.16861658 -0.04440021 -0.032046475 0.24340929 -0.21844925
0.039372783 0.0064393305 0.13435028 0.09428232 -0.038873676 -0.009379302 -0.054769903 -0.07987
0.009541514 -0.11096607 0.020203482 -0.0941536 0.008198504 -0.12584455 -0.029455656 0.14739957
-0.012743551 0.17200519 0.13880593 0.06796686 0.19974615 0.28883022 -0.030106315 0.043149877

output.bias f4 [4]
00000000: fe1d 913e 21da 693e e660 823e 913e 813e
0.28343195 0.22837116 0.25464553 0.25243047
