model.pt (torch_old, 300230 bytes, 8 tensors)

hidden_layers.0.weight f4 [32, 37]
-0.08815925 0.070276774 0.034520824 0.061843265 0.10426944 0.07964898 0.17483428 0.073744744
-0.20049359 0.06168223 -0.043322835 0.037872583 -0.08661532 -0.09567459 -0.38372678 0.051516622
0.10073714 0.18832685 0.005077937 -0.011843607 -0.02491321 0.17174795 0.05395164 0.27111855
0.1102092 -0.07986317 0.3245616 -0.023234537 -0.13454112 0.12537873 -0.318997 0.3111897
0.11866611 -0.13770856 -0.18571192 -0.10972666 -0.03449109 -0.050606888 0.12386207 0.1896773
0.033842795 0.054271277 -0.013233008 0.012583188 -0.013238528 -0.08913386 0.19189027 -0.021252438
0.020920724 0.03419097 0.14242913 0.33031794 0.024180727 0.015747812 0.21013111 -0.11148261
-0.031128474 -0.15842451 -0.11398395 -0.04178321 -0.12762742 0.21163927 -0.071862355 0.02721381
0.1765339 0.062566735 0.28414416 -0.02007051 0.18630266 0.22994041 -0.246058 -0.500141
0.021190874 0.042613786 0.12078873 0.09305699 0.08109721 -0.16556787 0.44424233 -0.21033487
-0.27657044 0.294829 -0.083987445 -0.18372923 0.13031447 -0.33646658 -0.027278896 -0.0070085633
-0.015145998 -0.04013019 0.050906222 -0.024592325 0.162971 0.25344107 -0.11754178 -0.19562961
0.03773625 0.035576373 -0.17719343 -0.21435863 0.07857012 0.14246716 0.16749515 -0.0061503714
-0.2705331 -0.22216928 -0.010244897 -0.06981502 0.053214315 -0.013835755 -0.03806447 0.09856042
0.08240557 0.2244098 0.023113498 -0.16798212 0.0020530703 -0.028975118 0.07853967 0.13942897
-0.13201737 0.11423253 -0.055634458 0.05651556 -0.08306726 -0.2272866 -0.0131589575 0.03734272
-0.024192356 -0.057527415 0.007240568 0.11867164 0.050727013 0.025680754 -0.005935053 -0.28566602
-0.026514543 0.10865219 0.05326448 0.3583519 0.7215938 0.16196613 0.2929873 -0.088695705
-0.08669411 -0.40727502 0.03614849 0.013911278 -0.086892046 -0.07587079 -0.08065057 -0.1134201
0.032794487 0.28608143 -0.02877802 -0.24735968 -0.50973564 -1.4560643 -0.09418646 0.011760897
0.06886823 -0.006404269 -0.023730766 -0.091616936 -0.042079974 0.046188902 0.028292619 0.06960467
-0.17685053 0.13832282 0.12528428 0.07881517 0.15412621 -0.039100017 -0.09762664 0.106069036
0.16396843 0.3749567 -0.008895059 -0.08355092 0.05726621 0.08749421 0.13000761 -0.0095302025
0.010248132 0.12087342 -0.07886839 0.058513742 0.009665229 0.14701276 0.39396387 -0.044331323
-0.282404 -0.1764554 -1.1341137 -0.06396595 -0.035693616 0.033897452 0.030891176 0.19613114
0.052443277 0.09190422 -0.0057770847 -0.054410245 -0.0112410495 0.30906132 -0.03255759 0.04071388
0.070106864 -0.1702282 0.13037995 -0.057421006 -0.04643601 0.05445933 0.09553392 0.085799426
0.07324644 -0.093743585 0.054102708 0.077770405 -0.0007471885 0.034536958 0.05758775 0.05746217
-0.01150982 0.05843866 0.069020614 -0.03850464 0.038913425 0.016492192 0.11309192 0.2105774
0.08056002 0.1780891 0.10265583 0.07114577 0.029202638 -0.011890469 -0.029662393 0.06718262
0.049373116 0.17659841 -0.020847758 0.0057036565 -0.011185902 0.10245017 0.32502902 -0.05620975
-0.017658183 0.005763044 0.05148478 0.045131423 0.4803135 -0.34145123 -0.23934093 -0.25350893
00000000: d68c b4bd 45ed 8f3d b565 0d3d 5d4f 7d3d
00000010: 378b d53d 011f a33d c207 333e 7c07 973d
00000020: 314e 4dbe 82a6 7c3d 4973 31bd 4820 1b3d
00000030: 5f63 b1bd 0af1 c3bd d677 c4be 1803 533d
00000040: 464f ce3d c1d8 403e d364 a63b b00b 42bc
00000050: ca16 ccbc b2de 2f3e 65fc 5c3d 0dd0 8a3e
00000060: 5cb5 e13d 4d8f a3bd f02c a63e 5b56 bebc
00000070: 26c5 09be 4863 003e 9353 a3be 4254 9f3e
00000080: 3807 f33d 7903 0dbe 442b 3ebe 5fb8 e0bd
00000090: 8746 0dbd 2b49 4fbd 66ab fd3d c43a 423e
000000a0: be9e 0a3d 8f4b 5e3d 42cf 58bc b729 4e3c
000000b0: 69e6 58bc d08b b6bd e27e 443e 9819 aebc
000000c0: f061 ab3c d50b 0c3d f1d8 113e 6f1f a93e
000000d0: a916 c63c 8e01 813c 9c2c 573e ff50 e4bd
000000e0: 2401 ffbc 093a 22be 6b70 e9bd df24 2bbd
000000f0: c3b0 02be f7b7 583e 922c 93bd 7fef de3c
00000100: 4dc5 343e fd22 803d 587b 913e e96a a4bc
00000110: 20c6 3e3e 8075 6b3e a1f6 7bbe 3e09 00bf
00000120: 7c98 ad3c cb8b 2e3d 1560 f73d aa94 be3d
00000130: 4b16 a63d a08a 29be bb73 e33e 0662 57be
00000140: a49a 8dbe d4f3 963e 9c01 acbd 8423 3cbe
00000150: 2871 053e 5945 acbe fe77 dfbc 17a8 e5bb
00000160: ec26 78bc 8e5f 24bd 0b83 503d d875 c9bc
00000170: dfe1 263e 07c3 813e bfb9 f0bd 2153 48be
00000180: 5391 1a3d 88b8 113d 3272 35be d480 5bbe
00000190: 5fe9 a03d e9e2 113e d983 2b3e 0e89 c9bb
000001a0: 5183 8abe 5880 63be 36da 27bc 2dfb 8ebd
000001b0: 41f7 593d 5daf 62bc 7de9 1bbd 0cda c93d
000001c0: 40c4 a83d afcb 653e 8558 bd3c 8103 2cbe
000001d0: ce8c 063b 3a5d edbc 68d9 a03d 78c6 0e3e
000001e0: 902f 07be bff2 e93d f5e0 63bd dc7c 673d
000001f0: 2b1f aabd d2bd 68be ab98 57bc aef4 183d
00000200: 0c2f c6bc dea1 6bbd 4942 ed3b 1e0a f33d
00000210: 21c7 4f3d 7260 d23c d57a c2bb d142 92be
00000220: 0735 d9bc 0a85 de3d db2b 5a3d e679 b73e
00000230: 5fba 383f 73da 253e 6e02 963e 18a6 b5bd
00000240: ae8c b1bd 5a86 d0be 7010 143d 21ec 633c
00000250: 75f4 b1bd 2562 9bbd 202c a5bd cc48 e8bd
00000260: 8353 063d 4479 923e e2bf ebbc db4b 7dbe
00000270: 097e 02bf 5160 babf d5e4 c0bd c7b0 403c
00000280: c90a 8d3d e7da d1bb 0667 c2bc a9a1 bbbd
00000290: 0d5c 2cbd 9330 3d3d ecc5 e73c e58c 8e3d
000002a0: 4e18 35be 7fa4 0d3e 864a 003e d969 a13d
000002b0: 43d3 1d3e 5727 20bd 7af0 c7bd b93a d93d
000002c0: 57e7 273e 53fa bf3e 95bc 11bc bf1c abbd
000002d0: f98f 6a3d 2a30 b33d b720 053e 9124 1cbc
000002e0: c8e7 273c 7c8c f73d c085 a1bd 1bac 6f3d
000002f0: e95a 1e3c 838a 163e a2b5 c93e c394 35bd
00000300: 4297 90be b9b0 34be a32a 91bf 9400 83bd
00000310: 7833 12bd 0ed8 0a3d 7e0f fd3c 9ad6 483e
00000320: c3ce 563d 4838 bc3d b34d bdbb 47dd 5ebd
00000330: 612c 38bc 493d 9e3e 1c5b 05bd 99c3 263d
00000340: 3094 8f3d 4d50 2ebe 5282 053e 4a32 6bbd
00000350: b033 3ebd bf10 5f3d 4aa7 c33d 9cb7 af3d
00000360: 3b02 963d a3fc bfbd cd9a 5d3d 1746 9f3d
00000370: f9de 43ba a076 0d3d 22e1 6b3d 745d 6b3d
00000380: af93 3cbc 605d 6f3d ae5a 8d3d 0bb7 1dbd
00000390: af63 1f3d a21a 873c bd9c e73d 9aa1 573e
000003a0: a7fc a43d fd5c 363e 383d d23d e0b4 913d
000003b0: 5f3a ef3c 3ed0 42bc 8cfe f2bc 0b97 893d
000003c0: 773b 4a3d 37d6 343e ebc8 aabc bde5 ba3b
000003d0: 1345 37bc 65d1 d13d 346a a63e 323c 66bd
000003e0: e5a7 90bc ebd7 bc3b b4e1 523d badb 383d
000003f0: a7eb f53e b2d2 aebe ca15 75be eccb 81be

hidden_layers.0.bias f4 [32]
-0.05705905 -0.124343924 -0.05385467 0.22325808 0.19756238 -0.08419551 0.045929886 0.12389136
0.12734284 0.15893754 0.07174642 -0.042349506 0.15920387 -0.016036185 0.07150179 -0.019929808
0.071178004 0.18166545 0.15132166 -0.15446046 -0.12986815 -0.019022508 -0.052120157 0.21032543
0.01918007 -0.02536272 0.040042117 -0.010369345 0.15486553 -0.07943103 -0.08805669 -0.14583606
00000000: c0b6 69bd 07a8 febd b796 5cbd c49d 643e
00000010: cb4d 4a3e b26e acbd fa20 3c3d c1ba fd3d
00000020: 2966 023e 86c0 223e c9ef 923d ad76 2dbd
00000030: 5706 233e 515e 83bc 886f 923d d643 a3bc
00000040: c6c5 913d 8206 3a3e 11f4 1a3e e22a 1ebe
00000050: 28fc 04be 17d5 9bbc f27b 55bd 8d5f 573e
00000060: 861f 9d3c 7bc5 cfbc 3403 243d 2fe4 29bc
00000070: 1295 1e3e bcac a2bd 1157 b4bd 0c56 15be

hidden_layers.1.weight f4 [128, 32]
0.048811674 0.17601104 -0.08782588 0.18637912 0.115083456 0.116562404 -0.22633483 -0.11881334
-0.11036538 0.16320285 -0.22000141 0.027381644 0.13077405 -0.02746923 0.18123376 0.14676462
0.07518753 -0.220824 -0.028033216 0.02794553 0.12161844 0.18351622 0.16187707 -0.0031419962
-0.1815478 0.3009746 0.21461196 -0.26858872 -0.13555956 -0.26778772 0.039038 -0.036375456
0.055656817 -0.11260012 0.0006426062 0.24603273 0.22192237 -0.17410094 0.017418671 0.14899641
0.17021231 -0.22561751 0.09385161 0.09102753 -0.42496967 0.07537476 -0.0062998985 -0.15200005
-0.084336825 -0.01677044 0.043791573 0.021650817 0.10352797 0.10258623 0.010820645 0.24860933
-0.2544919 -0.15153557 0.0350745 -0.14606266 0.27033234 0.15881924 0.32046068 0.033575945
-0.076810844 0.02363679 -0.04451159 0.19309166 0.1692315 -0.18981537 -0.08199892 0.3594043
0.08701514 -0.27192223 0.13166039 0.053435944 -0.06579794 0.17263046 -0.42553663 -0.2151544
0.16602306 -0.19404492 0.17759249 -0.0016433664 -0.093651325 0.011949777 -0.14608827 0.1442498
0.2253927 0.14720538 -0.11225916 -0.4109713 -0.19379082 -0.074700624 0.32701862 -0.06800733
-0.030270854 -0.04474362 0.12537281 0.27629235 -0.2790904 -0.22525014 0.42733186 0.18159607
0.17193785 0.07055349 -0.010109317 -0.102318734 -0.1317218 0.23627354 -0.10899564 -0.21265101
0.007769821 0.019882938 0.0752645 -0.24432561 0.06881386 -0.014658096 -0.031467315 -0.020870294
0.04023153 -0.07535065 0.08539956 0.16035974 -0.14948377 -0.006868452 0.049120992 0.06734179
-0.059053842 -0.05307538 -0.020855697 -0.29163232 -0.037710786 0.15603709 0.08462004 0.15782382
0.21517712 0.2726494 -0.001189625 0.19621813 -0.20791003 0.001195776 -0.09516706 0.0049729305
0.17496027 0.10140991 -0.13563547 0.018465359 0.00038242785 0.07619493 -0.23240954 -0.14978267
-0.14781627 -0.07670309 -0.048247635 0.15290722 -0.22141461 0.0903704 -0.010143532 0.057398107
-0.037011877 -0.08701107 -0.03918419 -0.061830513 0.24324462 -0.21332999 -0.18096991 -0.0023376672
0.15144064 0.14685741 0.09610481 -0.15955013 -0.043959465 0.17543815 -0.26440653 0.21622805
0.24265788 0.0075446083 0.15975901 -0.34214985 0.04700223 -0.39027378 0.041593157 0.10119519
0.060716018 -0.48980275 0.058472693 -0.05351594 -0.10456237 0.04767702 -0.11066915 -0.12289966
0.11491912 -0.07294455 0.13121071 -0.04908942 0.21084987 0.2636552 0.13458979 -0.014840215
0.10726663 -0.06252945 -0.15912661 0.0728693 0.047192067 -0.03229938 -0.14984427 -0.008098138
-0.15400594 0.10968196 0.08915326 0.09406461 0.012913343 -0.13004217 -0.2893328 0.05431432
0.24621208 -0.009811614 0.021350548 -0.15506399 0.31109732 -0.23456019 -0.09783876 0.06808519
-0.01361723 0.12807459 0.09577885 -0.33125684 -0.41707474 0.038449205 0.26440588 -0.0620316
0.12067654 -0.109182954 0.13001585 0.18857603 0.18919677 -0.14625195 0.15533066 -0.2808922
0.04685332 -0.04922588 -0.01791192 0.17313752 -0.06449111 -0.06388938 -0.041320387 -0.20289388
0.07669076 -0.2944261 0.29410613 -0.06671577 -0.06962053 -0.08268225 0.08005563 0.13720769
00000000: c0ee 473d 3d3c 343e 0ede b3bd 2bda 3e3e
00000010: e0b0 eb3d 45b8 ee3d 51c4 67be 6954 f3bd
00000020: 3f07 e2bd a61e 273e 0d48 61be 784f e03c
00000030: a2e9 053e 2707 e1bc 5895 393e 7749 163e
00000040: ebfb 993d b01f 62be eaa5 e5bc 06ee e43c
00000050: 1713 f93d adeb 3b3e 1ac3 253e f3e9 4dbb
00000060: abe7 39be 5819 9a3e 3dc3 5b3e 7684 89be
00000070: 20d0 0abe 791b 89be 4fe6 1f3d 6efe 14bd
00000080: 67f8 633d e49a e6bd 9274 283a 01f0 7b3e
00000090: 9e3f 633e 8447 32be 9ab1 8e3c 8492 183e
000000a0: 234c 2e3e 4708 67be 4635 c03d a46c ba3d
000000b0: a095 d9be 155e 9a3d 616f cebb e7a5 1bbe
000000c0: c9b8 acbd 2962 89bc cb5e 333d 0e5d b13c
000000d0: 7906 d43d bb18 d23d 1349 313c 7293 7e3e
000000e0: c34c 82be 242c 1bbe 47aa 0f3d 7391 15be
000000f0: 0069 8a3e 83a1 223e 6c13 a43e ee86 093d
00000100: 014f 9dbd f1a1 c13c c951 36bd d2b9 453e
00000110: 064b 2d3e f65e 42be 0def a7bd d703 b83e
00000120: fe34 b23d 6439 8bbe fbd1 063e a6df 5a3d
00000130: 12c1 86bd 0ac6 303e f0df d9be 6f51 5cbe
00000140: f301 2a3e b6b3 46be ceda 353e 3a66 d7ba
00000150: 44cc bfbd ffc8 433c 2a98 15be 38b6 133e
00000160: 58cd 663e 02bd 163e 21e8 e5bd d56a d2be
00000170: 1a71 46be a4fc 98bd fc6e a73e 6d47 8bbd
00000180: 95fa f7bc 1645 37bd bb61 003e 3176 8d3e
00000190: f0e4 8ebe f9a7 66be 3ecb da3e 52f4 393e
000001a0: 7a10 303e 597e 903d 8ca1 25bc 7c8c d1bd
000001b0: 14e2 06be b1f1 713e 1b39 dfbd 30c1 59be
000001c0: fc99 fe3b 8be1 a23c 4624 9a3d 7e30 7abe
000001d0: 48ee 8c3d 8328 70bc dfe3 00bd 2ef8 aabc
000001e0: d1c9 243d 7151 9abd f7e5 ae3d 5835 243e
000001f0: 4612 19be c010 e1bb 1833 493d 7eea 893d
00000200: 71e2 71bd 9265 59bd 91d9 aabc d550 95be
00000210: a076 1abd 30c8 1f3e 464d ad3d 919c 213e
00000220: 6457 5c3e b498 8b3e 31ed 9bba 68ed 483e
00000230: 5ee6 54be 96bb 9c3a f3e6 c2bd f7f3 a23b
00000240: c928 333e 00b0 cf3d 06e4 0abe aa44 973c
00000250: 9980 c839 160c 9c3d c4fc 6dbe a160 19be
00000260: 265d 17be 8216 9dbd 509f 45bd b693 1c3e
00000270: 83ba 62be 1e14 b93d 0f31 26bc 471a 6b3d
00000280: c499 17bd dc32 b2bd 9a7f 20bd fe41 7dbd
00000290: 1e15 793e 2d73 5abe 2d50 39be 8c33 19bb
000002a0: 4113 1b3e ca61 163e 99d2 c43d 1c61 23be
000002b0: d70e 34bd 0fa6 333e 4b60 87be e36a 5d3e
000002c0: 4f7b 783e c338 f73b de97 233e 442e afbe
000002d0: 6985 403d f7d1 c7be 965d 2a3d 6c3f cf3d
000002e0: 5cb1 783d 6dc7 fabe 1081 6f3d 8833 5bbd
000002f0: cc24 d6bd fb48 433d 82a6 e2bd d1b2 fbbd
00000300: b75a eb3d f463 95bd 1a5c 063e fd11 49bd
00000310: 07e9 573e d0fd 863e e8d1 093e 6024 73bc
00000320: 9bae db3d 710f 80bd 16f2 22be 803c 953d
00000330: 784c 413d 5b4c 04bd c770 19be 0dae 04bc
00000340: bcb3 1dbe efa0 e03d fc95 b63d f2a4 c03d
00000350: 7c92 533c c629 05be 6e23 94be b178 5e3d
00000360: 051f 7c3e e4c0 20bc 58e7 ae3c 18c9 1ebe
00000370: 2648 9f3e 8c30 70be b05f c8bd 4070 8b3d
00000380: cd1a 5fbc fc25 033e b427 c43d 7f9a a9be
00000390: d28a d5be ea7c 1d3d 3560 873e d914 7ebd
000003a0: 4325 f73d 509b dfbd e022 053e 131a 413e
000003b0: ccbc 413e 12c3 15be 000f 1f3e 1ad1 8fbe
000003c0: 44e9 3f3d 14a1 49bd 05bc 92bc f64a 313e
000003d0: ea13 84bd 6fd8 82bd 913f 29bd 6ac3 4fbe
000003e0: 0c10 9d3d 05bf 96be 1495 963e 47a2 88bd
000003f0: 3595 8ebd 5055 a9bd 35f4 a33d 2c80 0c3e

hidden_layers.1.bias f4 [128]
-0.058655735 -0.067587286 -0.04001752 -0.11570871 0.0032067213 0.122493654 0.19795124 0.17622532
-0.20356889 0.17410827 0.06212431 0.068979 -0.034753572 -0.069190904 -0.10796985 -0.13446525
-0.044068497 0.0108122965 -0.16456825 0.08125083 -0.15804133 -0.18573926 0.06306948 -0.09397782
0.22455277 0.17290087 -0.05859536 -0.061004832 -0.12036394 -0.022201842 0.022269974 -0.083151914
0.08534699 0.015565259 -0.0446044 0.017534738 -0.2056575 -0.086486 0.047772616 0.15810594
-0.09926087 0.20843802 -0.03569632 0.0011043234 0.004365543 0.13725607 -0.015645182 0.17103866
-0.07249538 -0.1484676 0.20102519 -0.007838961 0.05212776 0.087350264 0.04469282 -0.20426652
-0.25079313 0.12952395 0.05383835 0.16540006 -0.13846043 -0.0614825 0.06526961 0.0643302
0.12857881 0.11596563 -0.0024328905 -0.13743877 -0.105727196 -0.027457304 -0.10328567 0.1379877
0.05315732 0.113151915 0.2188362 0.10184986 -0.059801042 0.14406678 -0.083970085 -0.083711095
-0.040261768 -0.07179295 0.05423255 -0.035114195 0.060508415 0.09983206 0.018589532 -0.09897066
0.020413235 -0.1430882 -0.12304888 0.033217344 -0.05648748 0.03652721 0.072472714 -0.14574154
0.05004273 0.030041607 0.12388286 0.06615087 0.27776802 0.06692588 -0.010884144 0.0037674916
-0.06108789 0.0014532917 -0.20646262 0.09991832 0.09760378 -0.060056094 0.035877116 -0.022778269
-0.17810953 0.017297763 0.12515137 0.06417821 0.09061463 0.15610431 0.11795232 -0.13086087
0.025047429 -0.17559606 0.10792825 0.15184064 -0.029476209 -0.017204788 -0.042504307 -0.0842111
00000000: ff40 70bd 346b 8abd 69e9 23bd b0f8 ecbd
00000010: db27 523b f4dd fa3d bbb3 4a3e 6974 343e
00000020: 5d74 50be 7049 323e 0f76 7e3d dd44 8d3d
00000030: c359 0ebd f6b3 8dbd 4c1f ddbd 42b1 09be
00000040: 2b81 34bd 0f26 313c 9484 28be d666 a63d
00000050: 96d5 21be 6f32 3ebe 922a 813d 7177 c0bd
00000060: 29f1 653e ed0c 313e b001 70bd 34e0 79bd
00000070: 5f81 f6bd a3e0 b5bc 856f b63c 8d4b aabd
00000080: 67ca ae3d 6e05 7f3c 1ab3 36bd 03a5 8f3c
00000090: e197 52be 921f b1bd 38ad 433d 86e6 213e
000000a0: 4849 cbbd c770 553e 4e36 12bd f2be 903a
000000b0: d40c 8f3b db8c 0c3e 532a 80bc c224 2f3e
000000c0: 7578 94bd e407 18be 8cd9 4d3e fc6e 00bc
000000d0: eb83 553d b2e4 b23d d20f 373d 3e2b 51be
000000e0: f567 80be eda1 043e 9a85 5c3d a25e 293e
000000f0: 92c8 0dbe 13d5 7bbd 13ac 853d 8dbf 833d
00000100: 2aaa 033e 637f ed3d 2171 1fbb c0bc 0cbe
00000110: 8087 d8bd 24ee e0bc 7087 d3bd a64c 0d3e
00000120: 7dbb 593d 31bc e73d 9916 603e a996 d03d
00000130: f0f1 74bd 3e86 133e 82f8 abbd b970 abbd
00000140: 86e9 24bd 2f08 93bd f322 5e3d e7d3 0fbd
00000150: acd7 773d c074 cc3d 1349 983c 21b1 cabd
00000160: a839 a73c b785 12be 0d01 fcbd e90e 083d
00000170: 6a5f 67bd 8e9d 153d 936c 943d 453d 15be
00000180: 9bf9 4c3d d119 f63c 4cb6 fd3d 1b7a 873d
00000190: 9c37 8e3e 7010 893d 6953 32bc 05e8 763b
000001a0: 4c37 7abd 617c be3a f06a 53be faa1 cc3d
000001b0: 7ee4 c73d 61fd 75bd e2f3 123d 7e99 babc
000001c0: 5862 36be 0ab4 8d3c ae27 003e de6f 833d
000001d0: 2a94 b93d cfd9 1f3e fc90 f13d 6400 06be
000001e0: 4430 cd3c 74cf 33be 7d09 dd3d 1d7c 1b3e
000001f0: 1778 f1bc 0ef1 8cbc ff18 2ebd df76 acbd

hidden_layers.2.weight f4 [521, 128]
-0.06603042 -0.00832278 0.037526425 -0.17127822 0.064367756 -0.03125489 0.05272669 -0.1441641
-0.14091711 -0.17676996 0.09144812 -0.22761671 -0.078124695 -0.05162033 0.17754738 -0.13097565
-0.041249786 -0.111376256 -0.012893717 0.022309305 0.03687115 -0.10465023 -0.12520829 0.16430187
-0.07378226 -0.22330187 -0.13023423 -0.22420622 -0.0030128162 -0.09826552 0.094130844 -0.19742419
-0.33530393 -0.00022456881 -0.050528612 -0.11914543 0.04542448 0.13527897 0.11918192 -0.11761445
-0.06375424 0.052662417 -0.10256006 -0.2311729 -0.26496637 -0.20982745 -0.24081205 0.06333881
-0.0011988261 0.011698163 -0.062831506 -0.19040519 -0.047519233 -0.16525233 -0.15103309 -0.026561754
-0.00666629 -0.1549616 0.033149578 0.019752111 -0.05281566 0.094149314 0.11697569 -0.04716363
0.018074248 0.19100547 -0.064260505 0.043063536 0.11605887 -0.07316266 -0.025373392 0.07715779
-0.021370769 -0.04446873 0.15611589 -0.03592818 0.20067286 -0.36348435 -0.1400465 0.075002454
-0.19373356 -0.18651463 -0.054321613 -0.00013444922 -0.010401424 -0.09242888 0.06792576 0.037261996
-0.27477434 0.09829492 -0.029098092 0.07342892 0.049914405 0.11620285 -0.22828647 -0.13702685
-0.22270975 0.1627483 -0.06940994 0.043151747 -0.2776103 0.11600939 -0.051138286 -0.049158912
0.12506749 0.024085602 0.1515854 -0.0104846 0.13265586 -0.13607126 0.008524748 -0.006233171
-0.12660696 -0.0009834948 0.021312324 0.015288094 0.034601323 0.02055203 -0.07619065 -0.1552126
-0.006422231 0.08515196 -0.16769587 -0.0052241436 0.12950781 0.028061671 -0.18916203 -0.18989585
0.0004011273 0.07389828 0.032215443 0.14055386 -0.3924448 0.12507704 -0.103909135 0.07263256
-0.03261317 -0.027034717 0.06360922 0.17536183 0.24112427 -0.035440676 0.20273486 0.051743634
0.030967833 -0.15645918 -0.21470247 0.01729758 -0.17753853 -0.01908738 -0.16965356 -0.052242596
-0.18334952 0.17132342 0.18874088 -0.070569195 0.23651497 -0.04546738 0.009995119 0.1297116
-0.15321334 -0.12627017 -0.085396826 -0.069242954 -0.39195567 -0.2199183 0.2444101 -0.018761976
0.01895235 0.11033894 -0.1158451 -0.049426712 -0.27725822 -0.18364367 -0.039636604 -0.07976053
-0.15716334 -0.112876415 -0.262728 -0.30935958 0.014280738 0.027230091 -0.024219742 -0.21684979
-0.041046698 -0.068282925 -0.079417706 0.101720795 -0.061192654 0.062428564 0.02394782 -0.037525304
0.03069257 -0.08202007 0.30483082 0.1775337 -0.13218826 -0.1853088 0.013943712 0.1736617
-0.13687369 0.09865061 -0.07613569 -0.037891693 0.033664286 0.10444138 0.00998791 -0.1125348
-0.1726053 -0.3962399 0.0074929385 0.050288055 0.1039628 -0.041190885 -0.012634133 0.035792194
-0.031954367 0.13041419 0.016706254 -0.11274729 -0.093526736 -0.024631597 0.02826837 -0.072967015
-0.06218912 -0.30438375 -0.02345449 0.14547105 -0.14544864 0.20805052 -0.09712454 -0.15926208
-0.15320498 -0.094312385 -0.16246863 0.0008022603 0.120536305 -0.10733942 0.07449136 0.0028028418
-0.16798925 0.088994175 0.016251992 -0.010826126 -0.10306066 0.21532364 0.068371445 -0.14415316
0.028867284 -0.16850477 0.20429687 0.011468836 -0.032817043 -0.060515363 -0.19743222 0.054137554
00000000: f53a 87bd 455c 08bc 4fb5 193d 8f63 2fbe
00000010: 3ed3 833d 2105 00bd f1f7 573d c19f 13be
00000020: 934c 10be 2f03 35be 2749 bb3d 5b14 69be
00000030: d7ff 9fbd d76f 53bd fbce 353e 7b1e 06be
00000040: 89f5 28bd 3c19 e4bd 2b40 53bc 01c2 b63c
00000050: 3406 173d dc52 d6bd 9a36 00be c03e 283e
00000060: 271b 97bd 3fa9 64be 1f5c 05be 5196 65be
00000070: ab72 45bb 6f3f c9bd acc7 c03d 9129 4abe
00000080: f5ac abbe 3b7a 6bb9 17f7 4ebd 8502 f4bd
00000090: 050f 3a3d 9286 0a3e a715 f43d d8df f0bd
000000a0: 9591 82bd 8cb4 573d 020b d2bd 97b8 6cbe
000000b0: aca9 87be 02dd 56be 6f97 76be c7b7 813d
000000c0: ee21 9dba a7a9 3f3c cead 80bd 94f9 42be
000000d0: 87a3 42bd e837 29be 6ba8 1abe 0998 d9bc
000000e0: e570 dabb 41ae 1ebe dac7 073d 2ecf a13c
000000f0: 3c55 58bd 5bd1 c03d f390 ef3d a72e 41bd
00000100: 7210 943c f096 433e 039b 83bd 6463 303d
00000110: 46b0 ed3d 4ed6 95bd dcdb cfbc e704 9e3d
00000120: c011 afbc d824 36bd d8dc 1f3e 6d29 13bd
00000130: 307d 4d3e 9f1a babe 5a68 0fbe e39a 993d
00000140: 1762 46be b1fd 3ebe 5780 5ebd f0fa 0cb9
00000150: bc6a 2abc 5a4b bdbd a91c 8b3d 09a0 183d
00000160: 39af 8cbe d94e c93d 1f5f eebc e761 963d
00000170: 0c73 4c3d c3fb ed3d eec3 69be c450 0cbe
00000180: 060e 64be 7ea7 263e cc26 8ebd e3bf 303d
00000190: f022 8ebe 5596 ed3d 6176 51bd db5a 49bd
000001a0: b111 003e 2b4f c53c 3439 1b3e 9ac7 2bbc
000001b0: f0d6 073e 4456 0bbe 62ab 0b3c a13f ccbb
000001c0: 41a5 01be 9ce8 80ba 2f97 ae3c ea7a 7a3c
000001d0: 1eba 0d3d bb5c a83c d809 9cbd 0df0 1ebe
000001e0: 9471 d2bb 2764 ae3d 77b8 2bbe 4b2f abbb
000001f0: b29d 043e 97e1 e53c b1b3 41be 0f74 42be
00000200: 654e d239 fb57 973d 57f4 033d 5aed 0f3e
00000210: 86ee c8be 3214 003e 50ce d4bd 61c0 943d
00000220: 6395 05bd e977 ddbc 8d45 823d 0d92 333e
00000230: 48e9 763e 3e2a 11bd ba99 4f3e 22f1 533d
00000240: 41b0 fd3c d636 20be f7da 5bbe a8b3 8d3c
00000250: a9cc 35be 235d 9cbc aab9 2dbe 55fc 55bd
00000260: fabf 3bbe 686f 2f3e 4a45 413e 9586 90bd
00000270: fb30 723e 013c 3abd 91c2 233c 1ed3 043e
00000280: f5e3 1cbe f84c 01be 88e4 aebd 40cf 8dbd
00000290: 6aae c8be 4332 61be a446 7a3e b7b2 99bc
000002a0: f541 9b3c 62f9 e13d 3240 edbd aa73 4abd
000002b0: caf4 8dbe 160d 3cbe fe59 22bd 7d59 a3bd
000002c0: 6def 20be c02b e7bd 4984 86be 6164 9ebe
000002d0: c2f9 693c a411 df3c 7b68 c6bc df0d 5ebe
000002e0: 9520 28bd ebd7 8bbd c0a5 a2bd fe52 d03d
000002f0: 26a5 7abd 18b5 7f3d 382e c43c 22b4 19bd
00000300: fc6e fb3c 23fa a7bd c912 9c3e 65cb 353e
00000310: 5c5c 07be 97c1 3dbe 2b74 643c 5fd4 313e
00000320: 9e28 0cbe 5509 ca3d 07ed 9bbd 5234 1bbd
00000330: 90e3 093d 5de5 d53d 55a4 233c a578 e6bd
00000340: 72bf 30be f5df cabe 5387 f53b d9fa 4d3d
00000350: 73ea d43d c6b7 28bd 65ff 4ebc d69a 123d
00000360: 95e2 02bd 4c8b 053e 8edb 883c 0de8 e6bd
00000370: f28a bfbd 34c8 c9bc 1293 e73c bb6f 95bd
00000380: 05ba 7ebd 30d8 9bbe a123 c0bc 5df6 143e
00000390: 7df0 14be 320b 553e 3be9 c6bd 9915 23be
000003a0: c4e1 1cbe da26 c1bd 2d5e 26be c74e 523a
000003b0: bddb f63d c5d4 dbbd ed8e 983d e2af 373b
000003c0: 6005 2cbe 9442 b63d e622 853c 1060 31bc
000003d0: 7811 d3bd cd7d 5c3e 5406 8c3d e39c 13be
000003e0: 157b ec3c 848c 2cbe 3333 513e c9e7 3b3c
000003f0: 2a6b 06bd f5de 77bd ac2b 4abe 57bf 5d3d

hidden_layers.2.bias f4 [521]
-0.065308645 -0.12285458 0.054323222 -0.12662196 0.40898597 -0.04930114 -0.088562734 0.07210545
-0.063734956 -0.042828295 -0.101941206 1.596202e-05 -0.116609216 -0.12747654 0.02612118 -0.004507738
0.004610133 0.12277495 -0.07451495 -0.11884973 0.058660127 -0.087823026 0.10736436 -0.11199517
-0.083455466 -0.03848674 -0.003097373 0.046693053 -0.056463517 0.024885774 -0.03122284 0.026945464
-0.074751884 0.061743405 0.17420365 -0.017548809 -0.109403655 -0.06578679 0.1132016 -0.029007625
-0.095335044 -0.05850146 -0.009628299 -0.028342344 -0.015362489 -0.023663877 0.058410592 -0.0055633564
-0.062650606 -0.097048536 0.07871095 0.011363027 0.021618342 -0.18449445 -0.06101019 -0.00305167
-0.0922229 -0.044924375 -0.067480534 -0.019656094 -0.053922232 -0.050493065 0.051370144 0.1702907
-0.14122367 -0.050720327 -0.054495994 0.011135714 -0.058311988 0.048557553 -0.07694266 -0.13466741
-0.027247598 0.24808134 -0.08981264 -0.08861235 -0.03353615 -0.1376281 0.07097787 -0.087523475
0.13574532 0.035906564 0.08858541 -0.016827295 -0.09050938 0.016323134 -0.0500751 -0.018050203
-0.07450715 -0.14315863 -0.07413699 -0.010797328 0.001494473 0.06278245 -0.059315138 -0.021025956
0.08467935 0.4324532 0.19754292 0.0051211608 -0.06822226 0.103865884 -0.07072502 -0.1018906
-0.03999448 0.008580727 0.045976713 -0.02320048 0.02151774 -0.17099765 0.014989894 -0.09200819
0.020452391 -0.037960153 -0.019614898 -0.079436876 -0.0033794139 -0.020726198 -0.0028073443 0.071425825
-0.12172451 0.029912068 0.055710815 -0.020053947 0.3097169 -0.117574945 -0.08663574 -0.010031899
-0.092995614 -0.018190134 -0.0011411394 0.031009942 -0.026070103 0.07701843 -0.10210742 0.019840749
-0.038097404 -0.026359875 -0.101182394 -0.11548251 0.16721998 0.0010750426 0.0029317664 -0.13886692
0.045409076 0.030926423 -0.023908861 -0.04135834 -0.0061394786 -0.069681585 -0.020297788 -0.05758722
-0.12331637 0.071327806 -0.015378376 0.27294242 -0.1271664 -0.02082426 -0.11661965 -0.08245331
-0.1195921 -0.059743565 -0.04316153 -0.013266354 -0.04360673 0.43241656 -0.080686904 -0.0034022555
0.004018851 0.04244704 0.060510706 0.052662168 0.010588364 -0.07305635 -0.0117059285 -0.045764677
-0.11817541 -0.0198275 -0.05996748 -0.0012310301 0.0139786545 0.0222967 -0.10564508 0.04046007
0.19108944 -0.02740541 -0.050283883 0.01222058 0.11875365 -0.018476717 -0.07867242 -0.13215303
-0.018834628 -0.012813857 0.07151388 -0.13571028 -0.07731411 -0.09886148 0.03082899 -0.057720467
-0.06146857 -0.0773679 0.03569936 -0.11090502 0.028584514 -0.07724261 -0.0011833507 -0.06930022
-0.06987417 0.0624743 -0.15200926 -0.1362264 -0.06678857 0.4350256 0.015305464 -0.008768581
-0.07524954 -0.044474192 -0.005279362 0.053631943 -0.030771183 0.094045885 -0.109770775 -0.12131135
-0.061158348 -0.09023217 0.00571076 0.07706673 -0.03002747 -0.054007854 -0.05362698 0.028433682
0.035455685 0.0974237 0.45728996 -0.06944965 -0.07876568 -0.028449154 -0.012220272 0.3720705
0.013475007 0.12084663 -0.052013192 -0.086518176 -0.08961685 -0.26122043 -0.13928935 0.45231837
-0.024756294 -0.034030385 -0.05103615 -0.054200783 -0.0062659387 0.056682713 -0.14019743 0.03604951
00000000: 8ac0 85bd 2f9b fbbd 0782 5e3d 30a9 01be
00000010: 9c66 d13e feef 49bd 6160 b5bd 06ac 933d
00000020: 7987 82bd b96c 2fbd 8dc6 d0bd 2de6 8537
00000030: d0d0 eebd 3689 02be 16fc d53c a6b5 93bb
00000040: 9910 973b 6f71 fb3d 4b9b 98bd 7d67 f3bd
00000050: 9a45 703d 8fdc b3bd d8e1 db3d b95d e5bd
00000060: b3ea aabd 46a4 1dbd 4cfd 4abb 3741 3f3d
00000070: 4a46 67bd 40dd cb3c 0bc7 ffbc bcbc dc3c
00000080: 8417 99bd a7e6 7c3d 7162 323e 85c2 8fbc
00000090: 060f e0bd 39bb 86bd 3ed6 e73d 66a1 edbc
000000a0: 053f c3bd 3a9f 6fbd 03c0 1dbc 342e e8bc
000000b0: f3b2 7bbc bfda c1bc f23f 6f3d d14c b6bb
000000c0: f64e 80bd 62c1 c6bd 3533 a13d fd2b 3a3c
000000d0: f318 b13c 1dec 3cbe d2e5 79bd 87fe 47bb
000000e0: 5cdf bcbd 9f02 38bd 3c33 8abd d105 a1bc
000000f0: 8fdd 5cbd d1d1 4ebd 8069 523d af60 2e3e
00000100: f09c 10be 1ec0 4fbd 3137 5fbd 9272 363c
00000110: 8dd8 6ebd 49e4 463d 1d94 9dbd 41e6 09be
00000120: 5b36 dfbc 0909 7e3e b0ef b7bd 647a b5bd
00000130: 345d 09bd 61ee 0cbe d85c 913d 823f b3bd
00000140: d200 0b3e c312 133d 446c b53d 65d9 89bc
00000150: fb5c b9bd 18b8 853c 8c1b 4dbd 05de 93bc
00000160: 3497 98bd 2d98 12be 22d5 97bd 47e7 30bc
00000170: 31e2 c33a 1694 803d 6ef4 72bd a03e acbc
00000180: 5e6c ad3d 816a dd3e b148 4a3e 69cf a73b
00000190: 1db8 8bbd a3b7 d43d 47d8 90bd 05ac d0bd
000001a0: 40d1 23bd 2d96 0c3c 1452 3c3d ef0e bebc
000001b0: f945 b03c 021a 2fbe 2c98 753c ca6e bcbd
000001c0: c68b a73c 1b7c 1bbd 6caf a0bc cdaf a2bd
000001d0: 2879 5dbb fdc9 a9bc 6cfb 37bb b447 923d
000001e0: b34a f9bd 270a f53c 0631 643d 2d48 a4bc
000001f0: 3793 9e3e 22cb f0bd 146e b1bd d65c 24bc
00000200: 7c74 bebd 7a03 95bc 4992 95ba 9008 fe3c
00000210: f890 d5bc d7bb 9d3d b21d d1bd 1189 a23c
00000220: 060c 1cbd aaf0 d7bc b738 cfbd 1882 ecbd
00000230: b73b 2b3e 72e8 8c3a e122 403b 2133 0ebe
00000240: defe 393d 6959 fd3c 84dc c3bc 5d67 29bd
00000250: ae2d c9bb 38b5 8ebd 8c47 a6bc 94e0 6bbd
00000260: 4b8d fcbd 5014 923d 95f5 7bbc 1cbf 8b3e
00000270: e937 02be a397 aabc 48d6 eebd 48dd a8bd
00000280: b4ec f4bd abb5 74bd 25ca 30bd 1f5b 59bc
00000290: f89c 32bd b465 dd3e 2d3f a5bd 60f8 5ebb
000002a0: 91b0 833b f3dc 2d3d 13da 773d 49b4 573d
000002b0: d17a 2d3c 919e 95bd 39ca 3fbc be73 3bbd
000002c0: f305 f2bd 486d a2bc 76a0 75bd 845a a1ba
000002d0: ba06 653c 92a7 b63c 735c d8bd 75b9 253d
000002e0: f3ac 433e 4f81 e0bc 79f6 4dbd d438 483c
000002f0: 1d35 f33d 7c5c 97bc 011f a1bd 2053 07be
00000300: 144b 9abc 36f1 51bc de75 923d a3f7 0abe
00000310: dc56 9ebd e377 cabd 148d fc3c 4c6c 6cbd
00000320: 78c6 7bbd 1073 9ebd 7e39 123d 2c22 e3bd
00000330: 122a ea3c 6031 9ebd a91a 9bba 46ed 8dbd
00000340: 301a 8fbd 0de5 7f3d 51a8 1bbe ef7e 0bbe
00000350: 72c8 88bd adbb de3e c5c3 7a3c 18aa 0fbc
00000360: 6e1c 9abd 922a 36bd 80fe acbb 2bad 5b3d
00000370: d913 fcbc 219b c03d 80cf e0bd 1672 f8bd
00000380: 2d81 7abd a5cb b8bd 5421 bb3b 29d5 9d3d
00000390: 2bfc f5bc 5737 5dbd f7a7 5bbd c1ed e83c
000003a0: fb39 113d 1486 c73d e921 ea3e 9e3b 8ebd
000003b0: e74f a1bd 330e e9bc 8937 48bc 0680 be3e
000003c0: 47c6 5c3c 707e f73d c90b 55bd 7130 b1bd
000003d0: 0a89 b7bd afbe 85be dea1 0ebe 4696 e73e
000003e0: b6cd cabc 7263 0bbd 480b 51bd a401 5ebd
000003f0: 8152 cdbb 222c 683d ea8f 0fbe a7a8 133d

output.weight f4 [4, 521]
0.08027156 -0.16712473 0.26485062 0.29277757 0.11448948 0.074601226 -0.017498191 -0.3631641
-0.040779 0.14342809 -0.2352521 0.024462223 -0.07414675 -0.0098733995 0.11644832 0.0042003114
-0.26193577 0.105454355 -0.14854516 -0.18544814 -0.041080363 0.053901743 0.07865073 -0.024378419
0.034975585 0.010557645 0.03345467 0.068658516 0.020175148 0.26725167 -0.18448046 -0.15341513
-0.067868896 -0.10260533 0.086609446 -0.25279883 0.027717283 -0.0010480948 -0.30196977 0.0515582
0.085464284 -0.01647487 -0.007679448 0.05132804 -0.13988508 -0.17969033 0.09222721 0.17396301
-0.03709192 -0.28897783 0.054565117 0.06069427 -0.012977296 -0.0010727108 -0.29897875 0.18592729
-0.0023953263 0.022346092 -0.0015705425 -0.01794712 0.0736995 0.08357252 0.26902744 0.14214994
-0.13458188 0.008130822 -0.01843058 -0.07418722 -0.1048935 -0.001551794 -0.14634089 -0.0053981123
0.10675684 0.06844319 0.04505967 -0.0048692124 -0.26311296 -0.12274833 0.07277698 -0.05600767
0.039184537 0.2943811 -0.52116346 -0.027180955 -0.03506051 0.050861903 -0.04771491 0.05672071
0.26301816 -0.017173331 -0.032489933 -0.045339607 -0.021623136 0.1867129 -0.008414761 0.2980295
0.04001487 0.121157736 0.05140863 0.23970439 -0.2358551 0.053169154 -0.07354249 -0.016214436
-0.020345092 0.06262943 0.0048492583 -0.07632041 -0.03403587 -0.11597224 0.015775759 0.010651681
0.0084387455 0.07797601 -0.10601671 -0.20071316 -0.27591226 0.010900609 -0.10809272 0.019397797
0.27265605 0.04782923 0.058955677 -0.28505507 0.14651322 -0.0028095134 -0.019804966 0.065629445
-0.08653647 0.018449679 0.019952383 -0.33720827 0.20839168 0.077947825 0.0009142595 0.14188087
0.034347374 0.038447626 -0.113676004 -0.014497276 0.08944083 0.090626284 0.16133487 0.16136499
-0.24066542 -0.007486645 -0.021462293 -0.10627998 0.27255315 -0.17775396 -0.04611543 0.21791673
-0.039200522 -0.04264378 0.006432941 0.10626628 0.0097349435 0.07139772 0.021562 -0.034480248
-0.012237739 0.1615417 0.110427834 -0.008430336 -0.12795304 0.14037749 0.08811054 0.0303832
0.096383594 0.031796668 0.14213938 0.09051098 0.11667079 -0.0839696 -0.11459018 0.058550853
0.03504744 0.032772463 -0.027588613 0.0749712 0.10029881 0.32050395 0.15233763 0.10624672
0.10889853 -0.2958795 -0.079036966 -0.27356756 0.0070860074 0.2922851 -0.039231814 -0.11656034
0.07794392 0.29236665 0.21572678 -0.047274247 0.013027614 -0.038411673 -0.1356418 -0.039543256
0.035250977 -0.025206191 0.0089806765 0.02881014 0.098303124 0.07593621 -0.0016361752 -0.08688835
-0.2012657 -0.011610584 -0.17800786 -0.16586559 0.05588078 0.115596235 0.1865644 0.10537898
0.083907604 0.003988945 0.19709836 -0.28562048 0.046597034 0.09140609 0.18384603 -0.035132017
0.009994088 -0.18860488 0.026608147 -0.12272144 -0.096631475 -0.00527784 -0.00042343963 0.056257404
-0.023305727 0.2859687 0.16744494 0.029916672 0.020497635 -0.18007997 -0.08884102 0.093017444
0.08911835 -0.09606531 0.14801191 -0.03070475 -0.031594973 -0.19062786 -0.056284852 0.15612772
0.018745426 0.15051816 0.07056339 -0.0025410834 -0.11016958 0.043212537 -0.038150772 0.026975894
00000000: 6a65 a43d bf22 2bbe 809a 873e f1e6 953e
00000010: 7679 ea3d 87c8 983d 5e58 8fbc a5f0 b9be
00000020: e107 27bd d0de 123e ede5 70be 0065 c83c
00000030: 40da 97bd 0ac4 21bc 757c ee3d c4a2 893b
00000040: 721c 86be 74f8 d73d 391c 18be 1ee6 3dbe
00000050: e243 28bd 13c8 5c3d a213 a13d 40b5 c7bc
00000060: 8f42 0f3d f9f9 2c3c c407 093d d69c 8c3d
00000070: 5a46 a53c 36d5 883e 72e8 3cbe db18 1dbe
00000080: d9fe 8abd be22 d2bd 4b60 b13d d96e 81be
00000090: 5b0f e33c 3a60 89ba c89b 9abe b12e 533d
000000a0: e607 af3d 4ef6 86bc e1a3 fbbb 5a3d 523d
000000b0: 093e 0fbe be00 38be 9fe1 bc3d 5c23 323e
000000c0: b2ed 17bd e7f4 93be ac7f 5f3d 8e9a 783d
000000d0: b99e 54bc 349a 8cba be13 99be b963 3e3e
000000e0: e8fa 1cbb 270f b73c a9da cdba d705 93bc
000000f0: c3ef 963d 1228 ab3d f7bd 893e c18f 113e
00000100: d5cf 09be 2437 053c bafb 96bc 78ef 97bd
00000110: 67d2 d6bd 9165 cbba 63da 15be a6e2 b0bb
00000120: 55a3 da3d f12b 8c3d 7d90 383d ea8d 9fbb
00000130: beb6 86be 7a63 fbbd 190c 953d 4c68 65bd
00000140: f77f 203d 1fb9 963e f86a 05bf 98aa debc
00000150: 9c9b 0fbd 9254 503d b670 43bd fa53 683d
00000160: 51aa 863e 16af 8cbc 2a14 05bd 06b6 39bd
00000170: 0123 b1bc ab31 3f3e 11de 09bc 5397 983e
00000180: a2e6 233d 8c21 f83d db91 523d 1175 753e
00000190: 0084 71be e6c7 593d 729d 96bd 23d4 84bc
000001a0: c0aa a6bc dc43 803d 87e6 9e3b e04d 9cbd
000001b0: 3269 0bbd db82 edbd 2a3c 813c 6384 2e3c
000001c0: aa42 0a3c e3b1 9f3d 4a1f d9bd c087 4dbe
000001d0: 5f44 8dbe 7898 323c b75f ddbd 21e8 9e3c
000001e0: 9399 8b3e 95e8 433d 827b 713d bdf2 91be
000001f0: 9007 163e d01f 38bb 063e a2bc bb68 863d
00000200: 083a b1bd c823 973c 2e73 a33c 90a6 acbe
00000210: a164 553e 1ca3 9f3d ebaa 6f3a 3849 113e
00000220: d5af 0c3d 427b 1d3d f7ce e8bd fc85 6dbc
00000230: c12c b73d 469a b93d f834 253e dd3c 253e
00000240: ff70 76be 8852 f5bb b1d1 afbc 51a9 d9bd
00000250: 168c 8b3e 2205 36be 88e3 3cbd 9025 5f3e
00000260: ba90 20bd 3fab 2ebd 6ccb d23b 23a2 d93d
00000270: 507f 1f3c f838 923d cba2 b03c 293b 0dbd
00000280: cc80 48bc 306b 253e fd27 e23d 641f 0abc
00000290: 1f06 03be 1ebf 0f3e 4c73 b43d 30e6 f83c
000002a0: c364 c53d 393d 023d fc8c 113e d25d b93d
000002b0: 18f1 ee3d 41f8 abbd 42ae eabd 05d3 6f3d
000002c0: e88d 0f3d 6b3c 063d 8401 e2bc 808a 993d
000002d0: 7669 cd3d 1819 a43e 65fe 1b3e e197 d93d
000002e0: 3106 df3d 857d 97be 22de a1bd 0c11 8cbe
000002f0: bd31 e83b 65a6 953e 8ab1 20bd 30b7 eebd
00000300: 10a1 9f3d 15b1 953e 7be7 5c3e a4a2 41bd
00000310: c671 553c 8f55 1dbd afe5 0abe 1cf8 21bd
00000320: 5463 103d 377d cebc b023 133c 3e03 ec3c
00000330: 2653 c93d 7284 9b3d ee74 d6ba 85f2 b1bd
00000340: 9818 4ebe 523a 3ebc b147 36be abd8 29be
00000350: 3fe3 643d b8bd ec3d bd0a 3f3e efd0 d73d
00000360: c0d7 ab3d b2b5 823b 27d4 493e d93c 92be
00000370: 88dc 3e3d 1e33 bb3d 2242 3c3e 97e6 0fbd
00000380: 3ebe 233c a321 41be 54f9 d93c 6155 fbbd
00000390: b9e6 c5bd bbf1 acbb 1b01 deb9 2a6e 663d
000003a0: a7eb bebc 7d6a 923e b076 2b3e cf13 f53c
000003b0: a8ea a73c e266 38be 48f2 b5bd ee7f be3d
000003c0: ae83 b63d e4bd c4bd 6f90 173e 8788 fbbc
000003d0: bb69 01bd f333 43be f28a 66bd f2df 1f3e
000003e0: 0290 993c 6f21 1a3e 8a83 903d 4e88 26bb
000003f0: 97a0 e1bd a1ff 303d fc43 1cbd 8dfc dc3c

output.bias f4 [4]
0.3097783 0.29674643 0.29214445 0.29252574
00000000: 439b 9e3e 26ef 973e f593 953e efc5 953e
